…
I1129 13:30:44.644374 26105 net.cpp:322] The NetState phase (0) differed from the phase (1) specified by a rule in layer loss3/top-5
I1129 13:30:44.645949 26105 net.cpp:58] Initializing net from parameters: 
name: "InceptionNetwork"
state {
  phase: TRAIN
  level: 0
  stage: ""
}
layer {
  name: "data"
  type: "Data"
  top: "data"
  top: "label"
  include {
    phase: TRAIN
  }
  transform_param {
    mirror: true
    crop_size: 224
    mean_value: 104
    mean_value: 117
    mean_value: 123
  }
  data_param {
    source: "examples/imagenet/ilsvrc12_train_lmdb"
    batch_size: 64
    backend: LMDB
  }
}
layer {
  name: "conv1/7x7_s2"
  type: "Convolution"
  bottom: "data"
  top: "conv1/7x7_s2"
  param {
    lr_mult: 1
    decay_mult: 1
  }
  convolution_param {
    num_output: 64
    bias_term: false
    pad: 3
    kernel_size: 7
    stride: 2
    weight_filler {
      type: "xavier"
    }
  }
}
layer {
  name: "conv1/7x7_s2/bn"
  type: "BatchNorm"
  bottom: "conv1/7x7_s2"
  top: "conv1/7x7_s2/bn"
  batch_norm_param {
  }
}
layer {
  name: "conv1/7x7_s2/bn/sc"
  type: "Scale"
  bottom: "conv1/7x7_s2/bn"
  top: "conv1/7x7_s2/bn/sc"
  scale_param {
    bias_term: true
  }
}
layer {
  name: "conv1/7x7_s2/bn/sc/relu"
  type: "ReLU"
  bottom: "conv1/7x7_s2/bn/sc"
  top: "conv1/7x7_s2/bn/sc"
  relu_param {
  }
}
layer {
  name: "pool1/3x3_s2"
  type: "Pooling"
  bottom: "conv1/7x7_s2/bn/sc"
  top: "pool1/3x3_s2"
  pooling_param {
    pool: MAX
    kernel_size: 3
    stride: 2
  }
}
layer {
  name: "conv2/3x3_reduce"
  type: "Convolution"
  bottom: "pool1/3x3_s2"
  top: "conv2/3x3_reduce"
  param {
    lr_mult: 1
    decay_mult: 1
  }
  convolution_param {
    num_output: 64
    bias_term: false
    pad: 0
    kernel_size: 1
    stride: 1
    weight_filler {
      type: "xavier"
    }
  }
}
layer {
  name: "conv2/3x3_reduce/bn"
  type: "BatchNorm"
  bottom: "conv2/3x3_reduce"
  top: "conv2/3x3_reduce/bn"
  batch_norm_param {
  }
}
layer {
  name: "conv2/3x3_reduce/bn/sc"
  type: "Scale"
  bottom: "conv2/3x3_reduce/bn"
  top: "conv2/3x3_reduce/bn/sc"
  scale_param {
    bias_term: true
  }
}
layer {
  name: "conv2/3x3_reduce/bn/sc/relu"
  type: "ReLU"
  bottom: "conv2/3x3_reduce/bn/sc"
  top: "conv2/3x3_reduce/bn/sc"
  relu_param {
  }
}
layer {
  name: "conv2/3x3"
  type: "Convolution"
  bottom: "conv2/3x3_reduce/bn/sc"
  top: "conv2/3x3"
  param {
    lr_mult: 1
    decay_mult: 1
  }
  convolution_param {
    num_output: 192
    bias_term: false
    pad: 1
    kernel_size: 3
    stride: 1
    weight_filler {
      type: "xavier"
    }
  }
}
layer {
  name: "conv2/3x3/bn"
  type: "BatchNorm"
  bottom: "conv2/3x3"
  top: "conv2/3x3/bn"
  batch_norm_param {
  }
}
layer {
  name: "conv2/3x3/bn/sc"
  type: "Scale"
  bottom: "conv2/3x3/bn"
  top: "conv2/3x3/bn/sc"
  scale_param {
    bias_term: true
  }
}
layer {
  name: "conv2/3x3/bn/sc/relu"
  type: "ReLU"
  bottom: "conv2/3x3/bn/sc"
  top: "conv2/3x3/bn/sc"
  relu_param {
  }
}
layer {
  name: "pool2/3x3_s2"
  type: "Pooling"
  bottom: "conv2/3x3/bn/sc"
  top: "pool2/3x3_s2"
  pooling_param {
    pool: MAX
    kernel_size: 3
    stride: 2
  }
}
layer {
  name: "inception_3a/1x1"
  type: "Convolution"
  bottom: "pool2/3x3_s2"
  top: "inception_3a/1x1"
  param {
    lr_mult: 1
    decay_mult: 1
  }
  convolution_param {
    num_output: 64
    bias_term: false
    pad: 0
    kernel_size: 1
    stride: 1
    weight_filler {
      type: "xavier"
    }
  }
}
layer {
  name: "inception_3a/1x1/bn"
  type: "BatchNorm"
  bottom: "inception_3a/1x1"
  top: "inception_3a/1x1/bn"
  batch_norm_param {
  }
}
layer {
  name: "inception_3a/1x1/bn/sc"
  type: "Scale"
  bottom: "inception_3a/1x1/bn"
  top: "inception_3a/1x1/bn/sc"
  scale_param {
    bias_term: true
  }
}
layer {
  name: "inception_3a/1x1/bn/sc/relu"
  type: "ReLU"
  bottom: "inception_3a/1x1/bn/sc"
  top: "inception_3a/1x1/bn/sc"
  relu_param {
  }
}
layer {
  name: "inception_3a/3x3_reduce"
  type: "Convolution"
  bottom: "pool2/3x3_s2"
  top: "inception_3a/3x3_reduce"
  param {
    lr_mult: 1
    decay_mult: 1
  }
  convolution_param {
    num_output: 64
    bias_term: false
    pad: 0
    kernel_size: 1
    stride: 1
    weight_filler {
      type: "xavier"
    }
  }
}
layer {
  name: "inception_3a/3x3_reduce/bn"
  type: "BatchNorm"
  bottom: "inception_3a/3x3_reduce"
  top: "inception_3a/3x3_reduce/bn"
  batch_norm_param {
  }
}
layer {
  name: "inception_3a/3x3_reduce/bn/sc"
  type: "Scale"
  bottom: "inception_3a/3x3_reduce/bn"
  top: "inception_3a/3x3_reduce/bn/sc"
  scale_param {
    bias_term: true
  }
}
layer {
  name: "inception_3a/3x3_reduce/bn/sc/relu"
  type: "ReLU"
  bottom: "inception_3a/3x3_reduce/bn/sc"
  top: "inception_3a/3x3_reduce/bn/sc"
  relu_param {
  }
}
layer {
  name: "inception_3a/3x3"
  type: "Convolution"
  bottom: "inception_3a/3x3_reduce/bn/sc"
  top: "inception_3a/3x3"
  param {
    lr_mult: 1
    decay_mult: 1
  }
  convolution_param {
    num_output: 64
    bias_term: false
    pad: 1
    kernel_size: 3
    stride: 1
    weight_filler {
      type: "xavier"
    }
  }
}
layer {
  name: "inception_3a/3x3/bn"
  type: "BatchNorm"
  bottom: "inception_3a/3x3"
  top: "inception_3a/3x3/bn"
  batch_norm_param {
  }
}
layer {
  name: "inception_3a/3x3/bn/sc"
  type: "Scale"
  bottom: "inception_3a/3x3/bn"
  top: "inception_3a/3x3/bn/sc"
  scale_param {
    bias_term: true
  }
}
layer {
  name: "inception_3a/3x3/bn/sc/relu"
  type: "ReLU"
  bottom: "inception_3a/3x3/bn/sc"
  top: "inception_3a/3x3/bn/sc"
  relu_param {
  }
}
layer {
  name: "inception_3a/double3x3_reduce"
  type: "Convolution"
  bottom: "pool2/3x3_s2"
  top: "inception_3a/double3x3_reduce"
  param {
    lr_mult: 1
    decay_mult: 1
  }
  convolution_param {
    num_output: 64
    bias_term: false
    pad: 0
    kernel_size: 1
    stride: 1
    weight_filler {
      type: "xavier"
    }
  }
}
layer {
  name: "inception_3a/double3x3_reduce/bn"
  type: "BatchNorm"
  bottom: "inception_3a/double3x3_reduce"
  top: "inception_3a/double3x3_reduce/bn"
  batch_norm_param {
  }
}
layer {
  name: "inception_3a/double3x3_reduce/bn/sc"
  type: "Scale"
  bottom: "inception_3a/double3x3_reduce/bn"
  top: "inception_3a/double3x3_reduce/bn/sc"
  scale_param {
    bias_term: true
  }
}
layer {
  name: "inception_3a/double3x3_reduce/bn/sc/relu"
  type: "ReLU"
  bottom: "inception_3a/double3x3_reduce/bn/sc"
  top: "inception_3a/double3x3_reduce/bn/sc"
  relu_param {
  }
}
layer {
  name: "inception_3a/double3x3a"
  type: "Convolution"
  bottom: "inception_3a/double3x3_reduce/bn/sc"
  top: "inception_3a/double3x3a"
  param {
    lr_mult: 1
    decay_mult: 1
  }
  convolution_param {
    num_output: 96
    bias_term: false
    pad: 1
    kernel_size: 3
    stride: 1
    weight_filler {
      type: "xavier"
    }
  }
}
layer {
  name: "inception_3a/double3x3a/bn"
  type: "BatchNorm"
  bottom: "inception_3a/double3x3a"
  top: "inception_3a/double3x3a/bn"
  batch_norm_param {
  }
}
layer {
  name: "inception_3a/double3x3a/bn/sc"
  type: "Scale"
  bottom: "inception_3a/double3x3a/bn"
  top: "inception_3a/double3x3a/bn/sc"
  scale_param {
    bias_term: true
  }
}
layer {
  name: "inception_3a/double3x3a/bn/sc/relu"
  type: "ReLU"
  bottom: "inception_3a/double3x3a/bn/sc"
  top: "inception_3a/double3x3a/bn/sc"
  relu_param {
  }
}
layer {
  name: "inception_3a/double3x3b"
  type: "Convolution"
  bottom: "inception_3a/double3x3a/bn/sc"
  top: "inception_3a/double3x3b"
  param {
    lr_mult: 1
    decay_mult: 1
  }
  convolution_param {
    num_output: 96
    bias_term: false
    pad: 1
    kernel_size: 3
    stride: 1
    weight_filler {
      type: "xavier"
    }
  }
}
layer {
  name: "inception_3a/double3x3b/bn"
  type: "BatchNorm"
  bottom: "inception_3a/double3x3b"
  top: "inception_3a/double3x3b/bn"
  batch_norm_param {
  }
}
layer {
  name: "inception_3a/double3x3b/bn/sc"
  type: "Scale"
  bottom: "inception_3a/double3x3b/bn"
  top: "inception_3a/double3x3b/bn/sc"
  scale_param {
    bias_term: true
  }
}
layer {
  name: "inception_3a/double3x3b/bn/sc/relu"
  type: "ReLU"
  bottom: "inception_3a/double3x3b/bn/sc"
  top: "inception_3a/double3x3b/bn/sc"
  relu_param {
  }
}
layer {
  name: "inception_3a/pool"
  type: "Pooling"
  bottom: "pool2/3x3_s2"
  top: "inception_3a/pool"
  pooling_param {
    pool: AVE
    kernel_size: 3
    stride: 1
    pad: 1
  }
}
layer {
  name: "inception_3a/pool_proj"
  type: "Convolution"
  bottom: "inception_3a/pool"
  top: "inception_3a/pool_proj"
  param {
    lr_mult: 1
    decay_mult: 1
  }
  convolution_param {
    num_output: 32
    bias_term: false
    pad: 0
    kernel_size: 1
    stride: 1
    weight_filler {
      type: "xavier"
    }
  }
}
layer {
  name: "inception_3a/pool_proj/bn"
  type: "BatchNorm"
  bottom: "inception_3a/pool_proj"
  top: "inception_3a/pool_proj/bn"
  batch_norm_param {
  }
}
layer {
  name: "inception_3a/pool_proj/bn/sc"
  type: "Scale"
  bottom: "inception_3a/pool_proj/bn"
  top: "inception_3a/pool_proj/bn/sc"
  scale_param {
    bias_term: true
  }
}
layer {
  name: "inception_3a/pool_proj/bn/sc/relu"
  type: "ReLU"
  bottom: "inception_3a/pool_proj/bn/sc"
  top: "inception_3a/pool_proj/bn/sc"
  relu_param {
  }
}
layer {
  name: "inception_3a/output"
  type: "Concat"
  bottom: "inception_3a/1x1/bn/sc"
  bottom: "inception_3a/3x3/bn/sc"
  bottom: "inception_3a/double3x3b/bn/sc"
  bottom: "inception_3a/pool_proj/bn/sc"
  top: "inception_3a/output"
  concat_param {
  }
}
layer {
  name: "inception_3b/1x1"
  type: "Convolution"
  bottom: "inception_3a/output"
  top: "inception_3b/1x1"
  param {
    lr_mult: 1
    decay_mult: 1
  }
  convolution_param {
    num_output: 64
    bias_term: false
    pad: 0
    kernel_size: 1
    stride: 1
    weight_filler {
      type: "xavier"
    }
  }
}
layer {
  name: "inception_3b/1x1/bn"
  type: "BatchNorm"
  bottom: "inception_3b/1x1"
  top: "inception_3b/1x1/bn"
  batch_norm_param {
  }
}
layer {
  name: "inception_3b/1x1/bn/sc"
  type: "Scale"
  bottom: "inception_3b/1x1/bn"
  top: "inception_3b/1x1/bn/sc"
  scale_param {
    bias_term: true
  }
}
layer {
  name: "inception_3b/1x1/bn/sc/relu"
  type: "ReLU"
  bottom: "inception_3b/1x1/bn/sc"
  top: "inception_3b/1x1/bn/sc"
  relu_param {
  }
}
layer {
  name: "inception_3b/3x3_reduce"
  type: "Convolution"
  bottom: "inception_3a/output"
  top: "inception_3b/3x3_reduce"
  param {
    lr_mult: 1
    decay_mult: 1
  }
  convolution_param {
    num_output: 64
    bias_term: false
    pad: 0
    kernel_size: 1
    stride: 1
    weight_filler {
      type: "xavier"
    }
  }
}
layer {
  name: "inception_3b/3x3_reduce/bn"
  type: "BatchNorm"
  bottom: "inception_3b/3x3_reduce"
  top: "inception_3b/3x3_reduce/bn"
  batch_norm_param {
  }
}
layer {
  name: "inception_3b/3x3_reduce/bn/sc"
  type: "Scale"
  bottom: "inception_3b/3x3_reduce/bn"
  top: "inception_3b/3x3_reduce/bn/sc"
  scale_param {
    bias_term: true
  }
}
layer {
  name: "inception_3b/3x3_reduce/bn/sc/relu"
  type: "ReLU"
  bottom: "inception_3b/3x3_reduce/bn/sc"
  top: "inception_3b/3x3_reduce/bn/sc"
  relu_param {
  }
}
layer {
  name: "inception_3b/3x3"
  type: "Convolution"
  bottom: "inception_3b/3x3_reduce/bn/sc"
  top: "inception_3b/3x3"
  param {
    lr_mult: 1
    decay_mult: 1
  }
  convolution_param {
    num_output: 96
    bias_term: false
    pad: 1
    kernel_size: 3
    stride: 1
    weight_filler {
      type: "xavier"
    }
  }
}
layer {
  name: "inception_3b/3x3/bn"
  type: "BatchNorm"
  bottom: "inception_3b/3x3"
  top: "inception_3b/3x3/bn"
  batch_norm_param {
  }
}
layer {
  name: "inception_3b/3x3/bn/sc"
  type: "Scale"
  bottom: "inception_3b/3x3/bn"
  top: "inception_3b/3x3/bn/sc"
  scale_param {
    bias_term: true
  }
}
layer {
  name: "inception_3b/3x3/bn/sc/relu"
  type: "ReLU"
  bottom: "inception_3b/3x3/bn/sc"
  top: "inception_3b/3x3/bn/sc"
  relu_param {
  }
}
layer {
  name: "inception_3b/double3x3_reduce"
  type: "Convolution"
  bottom: "inception_3a/output"
  top: "inception_3b/double3x3_reduce"
  param {
    lr_mult: 1
    decay_mult: 1
  }
  convolution_param {
    num_output: 64
    bias_term: false
    pad: 0
    kernel_size: 1
    stride: 1
    weight_filler {
      type: "xavier"
    }
  }
}
layer {
  name: "inception_3b/double3x3_reduce/bn"
  type: "BatchNorm"
  bottom: "inception_3b/double3x3_reduce"
  top: "inception_3b/double3x3_reduce/bn"
  batch_norm_param {
  }
}
layer {
  name: "inception_3b/double3x3_reduce/bn/sc"
  type: "Scale"
  bottom: "inception_3b/double3x3_reduce/bn"
  top: "inception_3b/double3x3_reduce/bn/sc"
  scale_param {
    bias_term: true
  }
}
layer {
  name: "inception_3b/double3x3_reduce/bn/sc/relu"
  type: "ReLU"
  bottom: "inception_3b/double3x3_reduce/bn/sc"
  top: "inception_3b/double3x3_reduce/bn/sc"
  relu_param {
  }
}
layer {
  name: "inception_3b/double3x3a"
  type: "Convolution"
  bottom: "inception_3b/double3x3_reduce/bn/sc"
  top: "inception_3b/double3x3a"
  param {
    lr_mult: 1
    decay_mult: 1
  }
  convolution_param {
    num_output: 96
    bias_term: false
    pad: 1
    kernel_size: 3
    stride: 1
    weight_filler {
      type: "xavier"
    }
  }
}
layer {
  name: "inception_3b/double3x3a/bn"
  type: "BatchNorm"
  bottom: "inception_3b/double3x3a"
  top: "inception_3b/double3x3a/bn"
  batch_norm_param {
  }
}
layer {
  name: "inception_3b/double3x3a/bn/sc"
  type: "Scale"
  bottom: "inception_3b/double3x3a/bn"
  top: "inception_3b/double3x3a/bn/sc"
  scale_param {
    bias_term: true
  }
}
layer {
  name: "inception_3b/double3x3a/bn/sc/relu"
  type: "ReLU"
  bottom: "inception_3b/double3x3a/bn/sc"
  top: "inception_3b/double3x3a/bn/sc"
  relu_param {
  }
}
layer {
  name: "inception_3b/double3x3b"
  type: "Convolution"
  bottom: "inception_3b/double3x3a/bn/sc"
  top: "inception_3b/double3x3b"
  param {
    lr_mult: 1
    decay_mult: 1
  }
  convolution_param {
    num_output: 96
    bias_term: false
    pad: 1
    kernel_size: 3
    stride: 1
    weight_filler {
      type: "xavier"
    }
  }
}
layer {
  name: "inception_3b/double3x3b/bn"
  type: "BatchNorm"
  bottom: "inception_3b/double3x3b"
  top: "inception_3b/double3x3b/bn"
  batch_norm_param {
  }
}
layer {
  name: "inception_3b/double3x3b/bn/sc"
  type: "Scale"
  bottom: "inception_3b/double3x3b/bn"
  top: "inception_3b/double3x3b/bn/sc"
  scale_param {
    bias_term: true
  }
}
layer {
  name: "inception_3b/double3x3b/bn/sc/relu"
  type: "ReLU"
  bottom: "inception_3b/double3x3b/bn/sc"
  top: "inception_3b/double3x3b/bn/sc"
  relu_param {
  }
}
layer {
  name: "inception_3b/pool"
  type: "Pooling"
  bottom: "inception_3a/output"
  top: "inception_3b/pool"
  pooling_param {
    pool: AVE
    kernel_size: 3
    stride: 1
    pad: 1
  }
}
layer {
  name: "inception_3b/pool_proj"
  type: "Convolution"
  bottom: "inception_3b/pool"
  top: "inception_3b/pool_proj"
  param {
    lr_mult: 1
    decay_mult: 1
  }
  convolution_param {
    num_output: 64
    bias_term: false
    pad: 0
    kernel_size: 1
    stride: 1
    weight_filler {
      type: "xavier"
    }
  }
}
layer {
  name: "inception_3b/pool_proj/bn"
  type: "BatchNorm"
  bottom: "inception_3b/pool_proj"
  top: "inception_3b/pool_proj/bn"
  batch_norm_param {
  }
}
layer {
  name: "inception_3b/pool_proj/bn/sc"
  type: "Scale"
  bottom: "inception_3b/pool_proj/bn"
  top: "inception_3b/pool_proj/bn/sc"
  scale_param {
    bias_term: true
  }
}
layer {
  name: "inception_3b/pool_proj/bn/sc/relu"
  type: "ReLU"
  bottom: "inception_3b/pool_proj/bn/sc"
  top: "inception_3b/pool_proj/bn/sc"
  relu_param {
  }
}
layer {
  name: "inception_3b/output"
  type: "Concat"
  bottom: "inception_3b/1x1/bn/sc"
  bottom: "inception_3b/3x3/bn/sc"
  bottom: "inception_3b/double3x3b/bn/sc"
  bottom: "inception_3b/pool_proj/bn/sc"
  top: "inception_3b/output"
  concat_param {
  }
}
layer {
  name: "inception_3c/3x3_reduce"
  type: "Convolution"
  bottom: "inception_3b/output"
  top: "inception_3c/3x3_reduce"
  param {
    lr_mult: 1
    decay_mult: 1
  }
  convolution_param {
    num_output: 128
    bias_term: false
    pad: 0
    kernel_size: 1
    stride: 1
    weight_filler {
      type: "xavier"
    }
  }
}
layer {
  name: "inception_3c/3x3_reduce/bn"
  type: "BatchNorm"
  bottom: "inception_3c/3x3_reduce"
  top: "inception_3c/3x3_reduce/bn"
  batch_norm_param {
  }
}
layer {
  name: "inception_3c/3x3_reduce/bn/sc"
  type: "Scale"
  bottom: "inception_3c/3x3_reduce/bn"
  top: "inception_3c/3x3_reduce/bn/sc"
  scale_param {
    bias_term: true
  }
}
layer {
  name: "inception_3c/3x3_reduce/bn/sc/relu"
  type: "ReLU"
  bottom: "inception_3c/3x3_reduce/bn/sc"
  top: "inception_3c/3x3_reduce/bn/sc"
  relu_param {
  }
}
layer {
  name: "inception_3c/3x3"
  type: "Convolution"
  bottom: "inception_3c/3x3_reduce/bn/sc"
  top: "inception_3c/3x3"
  param {
    lr_mult: 1
    decay_mult: 1
  }
  convolution_param {
    num_output: 160
    bias_term: false
    pad: 1
    kernel_size: 3
    stride: 2
    weight_filler {
      type: "xavier"
    }
  }
}
layer {
  name: "inception_3c/3x3/bn"
  type: "BatchNorm"
  bottom: "inception_3c/3x3"
  top: "inception_3c/3x3/bn"
  batch_norm_param {
  }
}
layer {
  name: "inception_3c/3x3/bn/sc"
  type: "Scale"
  bottom: "inception_3c/3x3/bn"
  top: "inception_3c/3x3/bn/sc"
  scale_param {
    bias_term: true
  }
}
layer {
  name: "inception_3c/3x3/bn/sc/relu"
  type: "ReLU"
  bottom: "inception_3c/3x3/bn/sc"
  top: "inception_3c/3x3/bn/sc"
  relu_param {
  }
}
layer {
  name: "inception_3c/double3x3_reduce"
  type: "Convolution"
  bottom: "inception_3b/output"
  top: "inception_3c/double3x3_reduce"
  param {
    lr_mult: 1
    decay_mult: 1
  }
  convolution_param {
    num_output: 64
    bias_term: false
    pad: 0
    kernel_size: 1
    stride: 1
    weight_filler {
      type: "xavier"
    }
  }
}
layer {
  name: "inception_3c/double3x3_reduce/bn"
  type: "BatchNorm"
  bottom: "inception_3c/double3x3_reduce"
  top: "inception_3c/double3x3_reduce/bn"
  batch_norm_param {
  }
}
layer {
  name: "inception_3c/double3x3_reduce/bn/sc"
  type: "Scale"
  bottom: "inception_3c/double3x3_reduce/bn"
  top: "inception_3c/double3x3_reduce/bn/sc"
  scale_param {
    bias_term: true
  }
}
layer {
  name: "inception_3c/double3x3_reduce/bn/sc/relu"
  type: "ReLU"
  bottom: "inception_3c/double3x3_reduce/bn/sc"
  top: "inception_3c/double3x3_reduce/bn/sc"
  relu_param {
  }
}
layer {
  name: "inception_3c/double3x3a"
  type: "Convolution"
  bottom: "inception_3c/double3x3_reduce/bn/sc"
  top: "inception_3c/double3x3a"
  param {
    lr_mult: 1
    decay_mult: 1
  }
  convolution_param {
    num_output: 96
    bias_term: false
    pad: 1
    kernel_size: 3
    stride: 1
    weight_filler {
      type: "xavier"
    }
  }
}
layer {
  name: "inception_3c/double3x3a/bn"
  type: "BatchNorm"
  bottom: "inception_3c/double3x3a"
  top: "inception_3c/double3x3a/bn"
  batch_norm_param {
  }
}
layer {
  name: "inception_3c/double3x3a/bn/sc"
  type: "Scale"
  bottom: "inception_3c/double3x3a/bn"
  top: "inception_3c/double3x3a/bn/sc"
  scale_param {
    bias_term: true
  }
}
layer {
  name: "inception_3c/double3x3a/bn/sc/relu"
  type: "ReLU"
  bottom: "inception_3c/double3x3a/bn/sc"
  top: "inception_3c/double3x3a/bn/sc"
  relu_param {
  }
}
layer {
  name: "inception_3c/double3x3b"
  type: "Convolution"
  bottom: "inception_3c/double3x3a/bn/sc"
  top: "inception_3c/double3x3b"
  param {
    lr_mult: 1
    decay_mult: 1
  }
  convolution_param {
    num_output: 96
    bias_term: false
    pad: 1
    kernel_size: 3
    stride: 2
    weight_filler {
      type: "xavier"
    }
  }
}
layer {
  name: "inception_3c/double3x3b/bn"
  type: "BatchNorm"
  bottom: "inception_3c/double3x3b"
  top: "inception_3c/double3x3b/bn"
  batch_norm_param {
  }
}
layer {
  name: "inception_3c/double3x3b/bn/sc"
  type: "Scale"
  bottom: "inception_3c/double3x3b/bn"
  top: "inception_3c/double3x3b/bn/sc"
  scale_param {
    bias_term: true
  }
}
layer {
  name: "inception_3c/double3x3b/bn/sc/relu"
  type: "ReLU"
  bottom: "inception_3c/double3x3b/bn/sc"
  top: "inception_3c/double3x3b/bn/sc"
  relu_param {
  }
}
layer {
  name: "inception_3c/pool"
  type: "Pooling"
  bottom: "inception_3b/output"
  top: "inception_3c/pool"
  pooling_param {
    pool: MAX
    kernel_size: 3
    stride: 2
  }
}
layer {
  name: "inception_3c/output"
  type: "Concat"
  bottom: "inception_3c/3x3/bn/sc"
  bottom: "inception_3c/double3x3b/bn/sc"
  bottom: "inception_3c/pool"
  top: "inception_3c/output"
  concat_param {
  }
}
layer {
  name: "pool3/5x5_s3"
  type: "Pooling"
  bottom: "inception_3c/output"
  top: "pool3/5x5_s3"
  pooling_param {
    pool: AVE
    kernel_size: 5
    stride: 3
  }
}
layer {
  name: "loss1/conv"
  type: "Convolution"
  bottom: "pool3/5x5_s3"
  top: "loss1/conv"
  param {
    lr_mult: 1
    decay_mult: 1
  }
  convolution_param {
    num_output: 128
    bias_term: false
    pad: 0
    kernel_size: 1
    stride: 1
    weight_filler {
      type: "xavier"
    }
  }
}
layer {
  name: "loss1/conv/bn"
  type: "BatchNorm"
  bottom: "loss1/conv"
  top: "loss1/conv/bn"
  batch_norm_param {
  }
}
layer {
  name: "loss1/conv/bn/sc"
  type: "Scale"
  bottom: "loss1/conv/bn"
  top: "loss1/conv/bn/sc"
  scale_param {
    bias_term: true
  }
}
layer {
  name: "loss1/conv/bn/sc/relu"
  type: "ReLU"
  bottom: "loss1/conv/bn/sc"
  top: "loss1/conv/bn/sc"
  relu_param {
  }
}
layer {
  name: "loss1/fc"
  type: "InnerProduct"
  bottom: "loss1/conv/bn/sc"
  top: "loss1/fc"
  param {
    lr_mult: 1
    decay_mult: 1
  }
  inner_product_param {
    num_output: 1024
    bias_term: false
    weight_filler {
      type: "xavier"
    }
  }
}
layer {
  name: "loss1/fc/bn"
  type: "BatchNorm"
  bottom: "loss1/fc"
  top: "loss1/fc/bn"
  batch_norm_param {
  }
}
layer {
  name: "loss1/fc/bn/sc"
  type: "Scale"
  bottom: "loss1/fc/bn"
  top: "loss1/fc/bn/sc"
  scale_param {
    bias_term: true
  }
}
layer {
  name: "loss1/fc/bn/sc/relu"
  type: "ReLU"
  bottom: "loss1/fc/bn/sc"
  top: "loss1/fc/bn/sc"
  relu_param {
  }
}
layer {
  name: "loss1/classifier"
  type: "InnerProduct"
  bottom: "loss1/fc/bn/sc"
  top: "loss1/classifier"
  param {
    lr_mult: 1
    decay_mult: 1
  }
  param {
    lr_mult: 2
    decay_mult: 0
  }
  inner_product_param {
    num_output: 1000
    weight_filler {
      type: "xavier"
    }
    bias_filler {
      type: "constant"
      value: 0
    }
  }
}
layer {
  name: "loss1/loss"
  type: "SoftmaxWithLoss"
  bottom: "loss1/classifier"
  bottom: "label"
  top: "loss1/loss"
  loss_weight: 0.3
}
layer {
  name: "inception_4a/1x1"
  type: "Convolution"
  bottom: "inception_3c/output"
  top: "inception_4a/1x1"
  param {
    lr_mult: 1
    decay_mult: 1
  }
  convolution_param {
    num_output: 224
    bias_term: false
    pad: 0
    kernel_size: 1
    stride: 1
    weight_filler {
      type: "xavier"
    }
  }
}
layer {
  name: "inception_4a/1x1/bn"
  type: "BatchNorm"
  bottom: "inception_4a/1x1"
  top: "inception_4a/1x1/bn"
  batch_norm_param {
  }
}
layer {
  name: "inception_4a/1x1/bn/sc"
  type: "Scale"
  bottom: "inception_4a/1x1/bn"
  top: "inception_4a/1x1/bn/sc"
  scale_param {
    bias_term: true
  }
}
layer {
  name: "inception_4a/1x1/bn/sc/relu"
  type: "ReLU"
  bottom: "inception_4a/1x1/bn/sc"
  top: "inception_4a/1x1/bn/sc"
  relu_param {
  }
}
layer {
  name: "inception_4a/3x3_reduce"
  type: "Convolution"
  bottom: "inception_3c/output"
  top: "inception_4a/3x3_reduce"
  param {
    lr_mult: 1
    decay_mult: 1
  }
  convolution_param {
    num_output: 64
    bias_term: false
    pad: 0
    kernel_size: 1
    stride: 1
    weight_filler {
      type: "xavier"
    }
  }
}
layer {
  name: "inception_4a/3x3_reduce/bn"
  type: "BatchNorm"
  bottom: "inception_4a/3x3_reduce"
  top: "inception_4a/3x3_reduce/bn"
  batch_norm_param {
  }
}
layer {
  name: "inception_4a/3x3_reduce/bn/sc"
  type: "Scale"
  bottom: "inception_4a/3x3_reduce/bn"
  top: "inception_4a/3x3_reduce/bn/sc"
  scale_param {
    bias_term: true
  }
}
layer {
  name: "inception_4a/3x3_reduce/bn/sc/relu"
  type: "ReLU"
  bottom: "inception_4a/3x3_reduce/bn/sc"
  top: "inception_4a/3x3_reduce/bn/sc"
  relu_param {
  }
}
layer {
  name: "inception_4a/3x3"
  type: "Convolution"
  bottom: "inception_4a/3x3_reduce/bn/sc"
  top: "inception_4a/3x3"
  param {
    lr_mult: 1
    decay_mult: 1
  }
  convolution_param {
    num_output: 96
    bias_term: false
    pad: 1
    kernel_size: 3
    stride: 1
    weight_filler {
      type: "xavier"
    }
  }
}
layer {
  name: "inception_4a/3x3/bn"
  type: "BatchNorm"
  bottom: "inception_4a/3x3"
  top: "inception_4a/3x3/bn"
  batch_norm_param {
  }
}
layer {
  name: "inception_4a/3x3/bn/sc"
  type: "Scale"
  bottom: "inception_4a/3x3/bn"
  top: "inception_4a/3x3/bn/sc"
  scale_param {
    bias_term: true
  }
}
layer {
  name: "inception_4a/3x3/bn/sc/relu"
  type: "ReLU"
  bottom: "inception_4a/3x3/bn/sc"
  top: "inception_4a/3x3/bn/sc"
  relu_param {
  }
}
layer {
  name: "inception_4a/double3x3_reduce"
  type: "Convolution"
  bottom: "inception_3c/output"
  top: "inception_4a/double3x3_reduce"
  param {
    lr_mult: 1
    decay_mult: 1
  }
  convolution_param {
    num_output: 96
    bias_term: false
    pad: 0
    kernel_size: 1
    stride: 1
    weight_filler {
      type: "xavier"
    }
  }
}
layer {
  name: "inception_4a/double3x3_reduce/bn"
  type: "BatchNorm"
  bottom: "inception_4a/double3x3_reduce"
  top: "inception_4a/double3x3_reduce/bn"
  batch_norm_param {
  }
}
layer {
  name: "inception_4a/double3x3_reduce/bn/sc"
  type: "Scale"
  bottom: "inception_4a/double3x3_reduce/bn"
  top: "inception_4a/double3x3_reduce/bn/sc"
  scale_param {
    bias_term: true
  }
}
layer {
  name: "inception_4a/double3x3_reduce/bn/sc/relu"
  type: "ReLU"
  bottom: "inception_4a/double3x3_reduce/bn/sc"
  top: "inception_4a/double3x3_reduce/bn/sc"
  relu_param {
  }
}
layer {
  name: "inception_4a/double3x3a"
  type: "Convolution"
  bottom: "inception_4a/double3x3_reduce/bn/sc"
  top: "inception_4a/double3x3a"
  param {
    lr_mult: 1
    decay_mult: 1
  }
  convolution_param {
    num_output: 128
    bias_term: false
    pad: 1
    kernel_size: 3
    stride: 1
    weight_filler {
      type: "xavier"
    }
  }
}
layer {
  name: "inception_4a/double3x3a/bn"
  type: "BatchNorm"
  bottom: "inception_4a/double3x3a"
  top: "inception_4a/double3x3a/bn"
  batch_norm_param {
  }
}
layer {
  name: "inception_4a/double3x3a/bn/sc"
  type: "Scale"
  bottom: "inception_4a/double3x3a/bn"
  top: "inception_4a/double3x3a/bn/sc"
  scale_param {
    bias_term: true
  }
}
layer {
  name: "inception_4a/double3x3a/bn/sc/relu"
  type: "ReLU"
  bottom: "inception_4a/double3x3a/bn/sc"
  top: "inception_4a/double3x3a/bn/sc"
  relu_param {
  }
}
layer {
  name: "inception_4a/double3x3b"
  type: "Convolution"
  bottom: "inception_4a/double3x3a/bn/sc"
  top: "inception_4a/double3x3b"
  param {
    lr_mult: 1
    decay_mult: 1
  }
  convolution_param {
    num_output: 128
    bias_term: false
    pad: 1
    kernel_size: 3
    stride: 1
    weight_filler {
      type: "xavier"
    }
  }
}
layer {
  name: "inception_4a/double3x3b/bn"
  type: "BatchNorm"
  bottom: "inception_4a/double3x3b"
  top: "inception_4a/double3x3b/bn"
  batch_norm_param {
  }
}
layer {
  name: "inception_4a/double3x3b/bn/sc"
  type: "Scale"
  bottom: "inception_4a/double3x3b/bn"
  top: "inception_4a/double3x3b/bn/sc"
  scale_param {
    bias_term: true
  }
}
layer {
  name: "inception_4a/double3x3b/bn/sc/relu"
  type: "ReLU"
  bottom: "inception_4a/double3x3b/bn/sc"
  top: "inception_4a/double3x3b/bn/sc"
  relu_param {
  }
}
layer {
  name: "inception_4a/pool"
  type: "Pooling"
  bottom: "inception_3c/output"
  top: "inception_4a/pool"
  pooling_param {
    pool: AVE
    kernel_size: 3
    stride: 1
    pad: 1
  }
}
layer {
  name: "inception_4a/pool_proj"
  type: "Convolution"
  bottom: "inception_4a/pool"
  top: "inception_4a/pool_proj"
  param {
    lr_mult: 1
    decay_mult: 1
  }
  convolution_param {
    num_output: 128
    bias_term: false
    pad: 0
    kernel_size: 1
    stride: 1
    weight_filler {
      type: "xavier"
    }
  }
}
layer {
  name: "inception_4a/pool_proj/bn"
  type: "BatchNorm"
  bottom: "inception_4a/pool_proj"
  top: "inception_4a/pool_proj/bn"
  batch_norm_param {
  }
}
layer {
  name: "inception_4a/pool_proj/bn/sc"
  type: "Scale"
  bottom: "inception_4a/pool_proj/bn"
  top: "inception_4a/pool_proj/bn/sc"
  scale_param {
    bias_term: true
  }
}
layer {
  name: "inception_4a/pool_proj/bn/sc/relu"
  type: "ReLU"
  bottom: "inception_4a/pool_proj/bn/sc"
  top: "inception_4a/pool_proj/bn/sc"
  relu_param {
  }
}
layer {
  name: "inception_4a/output"
  type: "Concat"
  bottom: "inception_4a/1x1/bn/sc"
  bottom: "inception_4a/3x3/bn/sc"
  bottom: "inception_4a/double3x3b/bn/sc"
  bottom: "inception_4a/pool_proj/bn/sc"
  top: "inception_4a/output"
  concat_param {
  }
}
layer {
  name: "inception_4b/1x1"
  type: "Convolution"
  bottom: "inception_4a/output"
  top: "inception_4b/1x1"
  param {
    lr_mult: 1
    decay_mult: 1
  }
  convolution_param {
    num_output: 192
    bias_term: false
    pad: 0
    kernel_size: 1
    stride: 1
    weight_filler {
      type: "xavier"
    }
  }
}
layer {
  name: "inception_4b/1x1/bn"
  type: "BatchNorm"
  bottom: "inception_4b/1x1"
  top: "inception_4b/1x1/bn"
  batch_norm_param {
  }
}
layer {
  name: "inception_4b/1x1/bn/sc"
  type: "Scale"
  bottom: "inception_4b/1x1/bn"
  top: "inception_4b/1x1/bn/sc"
  scale_param {
    bias_term: true
  }
}
layer {
  name: "inception_4b/1x1/bn/sc/relu"
  type: "ReLU"
  bottom: "inception_4b/1x1/bn/sc"
  top: "inception_4b/1x1/bn/sc"
  relu_param {
  }
}
layer {
  name: "inception_4b/3x3_reduce"
  type: "Convolution"
  bottom: "inception_4a/output"
  top: "inception_4b/3x3_reduce"
  param {
    lr_mult: 1
    decay_mult: 1
  }
  convolution_param {
    num_output: 96
    bias_term: false
    pad: 0
    kernel_size: 1
    stride: 1
    weight_filler {
      type: "xavier"
    }
  }
}
layer {
  name: "inception_4b/3x3_reduce/bn"
  type: "BatchNorm"
  bottom: "inception_4b/3x3_re
I1129 13:30:44.647759 26105 layer_factory.hpp:77] Creating layer data
I1129 13:30:44.648404 26105 net.cpp:100] Creating Layer data
I1129 13:30:44.648429 26105 net.cpp:408] data -> data
I1129 13:30:44.648461 26105 net.cpp:408] data -> label
I1129 13:30:44.650997 26109 db_lmdb.cpp:35] Opened lmdb examples/imagenet/ilsvrc12_train_lmdb
I1129 13:30:44.665416 26105 data_layer.cpp:41] output data size: 64,3,224,224
I1129 13:30:44.748527 26105 net.cpp:150] Setting up data
I1129 13:30:44.748587 26105 net.cpp:157] Top shape: 64 3 224 224 (9633792)
I1129 13:30:44.748598 26105 net.cpp:157] Top shape: 64 (64)
I1129 13:30:44.748605 26105 net.cpp:165] Memory required for data: 38535424
I1129 13:30:44.748621 26105 layer_factory.hpp:77] Creating layer label_data_1_split
I1129 13:30:44.748651 26105 net.cpp:100] Creating Layer label_data_1_split
I1129 13:30:44.748661 26105 net.cpp:434] label_data_1_split <- label
I1129 13:30:44.748684 26105 net.cpp:408] label_data_1_split -> label_data_1_split_0
I1129 13:30:44.748702 26105 net.cpp:408] label_data_1_split -> label_data_1_split_1
I1129 13:30:44.748713 26105 net.cpp:408] label_data_1_split -> label_data_1_split_2
I1129 13:30:44.748817 26105 net.cpp:150] Setting up label_data_1_split
I1129 13:30:44.748831 26105 net.cpp:157] Top shape: 64 (64)
I1129 13:30:44.748839 26105 net.cpp:157] Top shape: 64 (64)
I1129 13:30:44.748847 26105 net.cpp:157] Top shape: 64 (64)
I1129 13:30:44.748852 26105 net.cpp:165] Memory required for data: 38536192
I1129 13:30:44.748858 26105 layer_factory.hpp:77] Creating layer conv1/7x7_s2
I1129 13:30:44.748886 26105 net.cpp:100] Creating Layer conv1/7x7_s2
I1129 13:30:44.748894 26105 net.cpp:434] conv1/7x7_s2 <- data
I1129 13:30:44.748904 26105 net.cpp:408] conv1/7x7_s2 -> conv1/7x7_s2
I1129 13:30:44.750442 26105 net.cpp:150] Setting up conv1/7x7_s2
I1129 13:30:44.750465 26105 net.cpp:157] Top shape: 64 64 112 112 (51380224)
I1129 13:30:44.750473 26105 net.cpp:165] Memory required for data: 244057088
I1129 13:30:44.750488 26105 layer_factory.hpp:77] Creating layer conv1/7x7_s2/bn
I1129 13:30:44.750506 26105 net.cpp:100] Creating Layer conv1/7x7_s2/bn
I1129 13:30:44.750514 26105 net.cpp:434] conv1/7x7_s2/bn <- conv1/7x7_s2
I1129 13:30:44.750526 26105 net.cpp:408] conv1/7x7_s2/bn -> conv1/7x7_s2/bn
I1129 13:30:44.750793 26105 net.cpp:150] Setting up conv1/7x7_s2/bn
I1129 13:30:44.750808 26105 net.cpp:157] Top shape: 64 64 112 112 (51380224)
I1129 13:30:44.750814 26105 net.cpp:165] Memory required for data: 449577984
I1129 13:30:44.750834 26105 layer_factory.hpp:77] Creating layer conv1/7x7_s2/bn/sc
I1129 13:30:44.750864 26105 net.cpp:100] Creating Layer conv1/7x7_s2/bn/sc
I1129 13:30:44.750874 26105 net.cpp:434] conv1/7x7_s2/bn/sc <- conv1/7x7_s2/bn
I1129 13:30:44.750883 26105 net.cpp:408] conv1/7x7_s2/bn/sc -> conv1/7x7_s2/bn/sc
I1129 13:30:44.750947 26105 layer_factory.hpp:77] Creating layer conv1/7x7_s2/bn/sc
I1129 13:30:44.751108 26105 net.cpp:150] Setting up conv1/7x7_s2/bn/sc
I1129 13:30:44.751122 26105 net.cpp:157] Top shape: 64 64 112 112 (51380224)
I1129 13:30:44.751129 26105 net.cpp:165] Memory required for data: 655098880
I1129 13:30:44.751145 26105 layer_factory.hpp:77] Creating layer conv1/7x7_s2/bn/sc/relu
I1129 13:30:44.751157 26105 net.cpp:100] Creating Layer conv1/7x7_s2/bn/sc/relu
I1129 13:30:44.751164 26105 net.cpp:434] conv1/7x7_s2/bn/sc/relu <- conv1/7x7_s2/bn/sc
I1129 13:30:44.751175 26105 net.cpp:395] conv1/7x7_s2/bn/sc/relu -> conv1/7x7_s2/bn/sc (in-place)
I1129 13:30:44.751189 26105 net.cpp:150] Setting up conv1/7x7_s2/bn/sc/relu
I1129 13:30:44.751197 26105 net.cpp:157] Top shape: 64 64 112 112 (51380224)
I1129 13:30:44.751204 26105 net.cpp:165] Memory required for data: 860619776
I1129 13:30:44.751209 26105 layer_factory.hpp:77] Creating layer pool1/3x3_s2
I1129 13:30:44.751220 26105 net.cpp:100] Creating Layer pool1/3x3_s2
I1129 13:30:44.751226 26105 net.cpp:434] pool1/3x3_s2 <- conv1/7x7_s2/bn/sc
I1129 13:30:44.751235 26105 net.cpp:408] pool1/3x3_s2 -> pool1/3x3_s2
I1129 13:30:44.751296 26105 net.cpp:150] Setting up pool1/3x3_s2
I1129 13:30:44.751309 26105 net.cpp:157] Top shape: 64 64 56 56 (12845056)
I1129 13:30:44.751317 26105 net.cpp:165] Memory required for data: 912000000
I1129 13:30:44.751322 26105 layer_factory.hpp:77] Creating layer conv2/3x3_reduce
I1129 13:30:44.751358 26105 net.cpp:100] Creating Layer conv2/3x3_reduce
I1129 13:30:44.751379 26105 net.cpp:434] conv2/3x3_reduce <- pool1/3x3_s2
I1129 13:30:44.751402 26105 net.cpp:408] conv2/3x3_reduce -> conv2/3x3_reduce
I1129 13:30:44.756335 26105 net.cpp:150] Setting up conv2/3x3_reduce
I1129 13:30:44.756367 26105 net.cpp:157] Top shape: 64 64 56 56 (12845056)
I1129 13:30:44.756376 26105 net.cpp:165] Memory required for data: 963380224
I1129 13:30:44.756386 26105 layer_factory.hpp:77] Creating layer conv2/3x3_reduce/bn
I1129 13:30:44.756403 26105 net.cpp:100] Creating Layer conv2/3x3_reduce/bn
I1129 13:30:44.756412 26105 net.cpp:434] conv2/3x3_reduce/bn <- conv2/3x3_reduce
I1129 13:30:44.756422 26105 net.cpp:408] conv2/3x3_reduce/bn -> conv2/3x3_reduce/bn
I1129 13:30:44.756669 26105 net.cpp:150] Setting up conv2/3x3_reduce/bn
I1129 13:30:44.756685 26105 net.cpp:157] Top shape: 64 64 56 56 (12845056)
I1129 13:30:44.756690 26105 net.cpp:165] Memory required for data: 1014760448
I1129 13:30:44.756706 26105 layer_factory.hpp:77] Creating layer conv2/3x3_reduce/bn/sc
I1129 13:30:44.756717 26105 net.cpp:100] Creating Layer conv2/3x3_reduce/bn/sc
I1129 13:30:44.756723 26105 net.cpp:434] conv2/3x3_reduce/bn/sc <- conv2/3x3_reduce/bn
I1129 13:30:44.756731 26105 net.cpp:408] conv2/3x3_reduce/bn/sc -> conv2/3x3_reduce/bn/sc
I1129 13:30:44.756786 26105 layer_factory.hpp:77] Creating layer conv2/3x3_reduce/bn/sc
I1129 13:30:44.756937 26105 net.cpp:150] Setting up conv2/3x3_reduce/bn/sc
I1129 13:30:44.756950 26105 net.cpp:157] Top shape: 64 64 56 56 (12845056)
I1129 13:30:44.756956 26105 net.cpp:165] Memory required for data: 1066140672
I1129 13:30:44.756965 26105 layer_factory.hpp:77] Creating layer conv2/3x3_reduce/bn/sc/relu
I1129 13:30:44.756975 26105 net.cpp:100] Creating Layer conv2/3x3_reduce/bn/sc/relu
I1129 13:30:44.756983 26105 net.cpp:434] conv2/3x3_reduce/bn/sc/relu <- conv2/3x3_reduce/bn/sc
I1129 13:30:44.756990 26105 net.cpp:395] conv2/3x3_reduce/bn/sc/relu -> conv2/3x3_reduce/bn/sc (in-place)
I1129 13:30:44.757000 26105 net.cpp:150] Setting up conv2/3x3_reduce/bn/sc/relu
I1129 13:30:44.757007 26105 net.cpp:157] Top shape: 64 64 56 56 (12845056)
I1129 13:30:44.757014 26105 net.cpp:165] Memory required for data: 1117520896
I1129 13:30:44.757019 26105 layer_factory.hpp:77] Creating layer conv2/3x3
I1129 13:30:44.757035 26105 net.cpp:100] Creating Layer conv2/3x3
I1129 13:30:44.757041 26105 net.cpp:434] conv2/3x3 <- conv2/3x3_reduce/bn/sc
I1129 13:30:44.757052 26105 net.cpp:408] conv2/3x3 -> conv2/3x3
I1129 13:30:44.757621 26110 blocking_queue.cpp:50] Waiting for data
I1129 13:30:44.759253 26105 net.cpp:150] Setting up conv2/3x3
I1129 13:30:44.759277 26105 net.cpp:157] Top shape: 64 192 56 56 (38535168)
I1129 13:30:44.759284 26105 net.cpp:165] Memory required for data: 1271661568
I1129 13:30:44.759294 26105 layer_factory.hpp:77] Creating layer conv2/3x3/bn
I1129 13:30:44.759310 26105 net.cpp:100] Creating Layer conv2/3x3/bn
I1129 13:30:44.759318 26105 net.cpp:434] conv2/3x3/bn <- conv2/3x3
I1129 13:30:44.759327 26105 net.cpp:408] conv2/3x3/bn -> conv2/3x3/bn
I1129 13:30:44.759577 26105 net.cpp:150] Setting up conv2/3x3/bn
I1129 13:30:44.759589 26105 net.cpp:157] Top shape: 64 192 56 56 (38535168)
I1129 13:30:44.759595 26105 net.cpp:165] Memory required for data: 1425802240
I1129 13:30:44.759608 26105 layer_factory.hpp:77] Creating layer conv2/3x3/bn/sc
I1129 13:30:44.759618 26105 net.cpp:100] Creating Layer conv2/3x3/bn/sc
I1129 13:30:44.759624 26105 net.cpp:434] conv2/3x3/bn/sc <- conv2/3x3/bn
I1129 13:30:44.759632 26105 net.cpp:408] conv2/3x3/bn/sc -> conv2/3x3/bn/sc
I1129 13:30:44.759686 26105 layer_factory.hpp:77] Creating layer conv2/3x3/bn/sc
I1129 13:30:44.759832 26105 net.cpp:150] Setting up conv2/3x3/bn/sc
I1129 13:30:44.759845 26105 net.cpp:157] Top shape: 64 192 56 56 (38535168)
I1129 13:30:44.759851 26105 net.cpp:165] Memory required for data: 1579942912
I1129 13:30:44.759865 26105 layer_factory.hpp:77] Creating layer conv2/3x3/bn/sc/relu
I1129 13:30:44.759878 26105 net.cpp:100] Creating Layer conv2/3x3/bn/sc/relu
I1129 13:30:44.759886 26105 net.cpp:434] conv2/3x3/bn/sc/relu <- conv2/3x3/bn/sc
I1129 13:30:44.759901 26105 net.cpp:395] conv2/3x3/bn/sc/relu -> conv2/3x3/bn/sc (in-place)
I1129 13:30:44.759920 26105 net.cpp:150] Setting up conv2/3x3/bn/sc/relu
I1129 13:30:44.759928 26105 net.cpp:157] Top shape: 64 192 56 56 (38535168)
I1129 13:30:44.759934 26105 net.cpp:165] Memory required for data: 1734083584
I1129 13:30:44.759940 26105 layer_factory.hpp:77] Creating layer pool2/3x3_s2
I1129 13:30:44.759953 26105 net.cpp:100] Creating Layer pool2/3x3_s2
I1129 13:30:44.759959 26105 net.cpp:434] pool2/3x3_s2 <- conv2/3x3/bn/sc
I1129 13:30:44.759968 26105 net.cpp:408] pool2/3x3_s2 -> pool2/3x3_s2
I1129 13:30:44.760016 26105 net.cpp:150] Setting up pool2/3x3_s2
I1129 13:30:44.760027 26105 net.cpp:157] Top shape: 64 192 28 28 (9633792)
I1129 13:30:44.760033 26105 net.cpp:165] Memory required for data: 1772618752
I1129 13:30:44.760040 26105 layer_factory.hpp:77] Creating layer pool2/3x3_s2_pool2/3x3_s2_0_split
I1129 13:30:44.760051 26105 net.cpp:100] Creating Layer pool2/3x3_s2_pool2/3x3_s2_0_split
I1129 13:30:44.760056 26105 net.cpp:434] pool2/3x3_s2_pool2/3x3_s2_0_split <- pool2/3x3_s2
I1129 13:30:44.760064 26105 net.cpp:408] pool2/3x3_s2_pool2/3x3_s2_0_split -> pool2/3x3_s2_pool2/3x3_s2_0_split_0
I1129 13:30:44.760078 26105 net.cpp:408] pool2/3x3_s2_pool2/3x3_s2_0_split -> pool2/3x3_s2_pool2/3x3_s2_0_split_1
I1129 13:30:44.760088 26105 net.cpp:408] pool2/3x3_s2_pool2/3x3_s2_0_split -> pool2/3x3_s2_pool2/3x3_s2_0_split_2
I1129 13:30:44.760097 26105 net.cpp:408] pool2/3x3_s2_pool2/3x3_s2_0_split -> pool2/3x3_s2_pool2/3x3_s2_0_split_3
I1129 13:30:44.760162 26105 net.cpp:150] Setting up pool2/3x3_s2_pool2/3x3_s2_0_split
I1129 13:30:44.760174 26105 net.cpp:157] Top shape: 64 192 28 28 (9633792)
I1129 13:30:44.760181 26105 net.cpp:157] Top shape: 64 192 28 28 (9633792)
I1129 13:30:44.760188 26105 net.cpp:157] Top shape: 64 192 28 28 (9633792)
I1129 13:30:44.760195 26105 net.cpp:157] Top shape: 64 192 28 28 (9633792)
I1129 13:30:44.760200 26105 net.cpp:165] Memory required for data: 1926759424
I1129 13:30:44.760206 26105 layer_factory.hpp:77] Creating layer inception_3a/1x1
I1129 13:30:44.760224 26105 net.cpp:100] Creating Layer inception_3a/1x1
I1129 13:30:44.760231 26105 net.cpp:434] inception_3a/1x1 <- pool2/3x3_s2_pool2/3x3_s2_0_split_0
I1129 13:30:44.760241 26105 net.cpp:408] inception_3a/1x1 -> inception_3a/1x1
I1129 13:30:44.760562 26105 net.cpp:150] Setting up inception_3a/1x1
I1129 13:30:44.760576 26105 net.cpp:157] Top shape: 64 64 28 28 (3211264)
I1129 13:30:44.760582 26105 net.cpp:165] Memory required for data: 1939604480
I1129 13:30:44.760591 26105 layer_factory.hpp:77] Creating layer inception_3a/1x1/bn
I1129 13:30:44.760601 26105 net.cpp:100] Creating Layer inception_3a/1x1/bn
I1129 13:30:44.760607 26105 net.cpp:434] inception_3a/1x1/bn <- inception_3a/1x1
I1129 13:30:44.760614 26105 net.cpp:408] inception_3a/1x1/bn -> inception_3a/1x1/bn
I1129 13:30:44.761791 26105 net.cpp:150] Setting up inception_3a/1x1/bn
I1129 13:30:44.761813 26105 net.cpp:157] Top shape: 64 64 28 28 (3211264)
I1129 13:30:44.761823 26105 net.cpp:165] Memory required for data: 1952449536
I1129 13:30:44.761837 26105 layer_factory.hpp:77] Creating layer inception_3a/1x1/bn/sc
I1129 13:30:44.761848 26105 net.cpp:100] Creating Layer inception_3a/1x1/bn/sc
I1129 13:30:44.761855 26105 net.cpp:434] inception_3a/1x1/bn/sc <- inception_3a/1x1/bn
I1129 13:30:44.761864 26105 net.cpp:408] inception_3a/1x1/bn/sc -> inception_3a/1x1/bn/sc
I1129 13:30:44.761921 26105 layer_factory.hpp:77] Creating layer inception_3a/1x1/bn/sc
I1129 13:30:44.762069 26105 net.cpp:150] Setting up inception_3a/1x1/bn/sc
I1129 13:30:44.762081 26105 net.cpp:157] Top shape: 64 64 28 28 (3211264)
I1129 13:30:44.762087 26105 net.cpp:165] Memory required for data: 1965294592
I1129 13:30:44.762097 26105 layer_factory.hpp:77] Creating layer inception_3a/1x1/bn/sc/relu
I1129 13:30:44.762107 26105 net.cpp:100] Creating Layer inception_3a/1x1/bn/sc/relu
I1129 13:30:44.762114 26105 net.cpp:434] inception_3a/1x1/bn/sc/relu <- inception_3a/1x1/bn/sc
I1129 13:30:44.762121 26105 net.cpp:395] inception_3a/1x1/bn/sc/relu -> inception_3a/1x1/bn/sc (in-place)
I1129 13:30:44.762147 26105 net.cpp:150] Setting up inception_3a/1x1/bn/sc/relu
I1129 13:30:44.762156 26105 net.cpp:157] Top shape: 64 64 28 28 (3211264)
I1129 13:30:44.762162 26105 net.cpp:165] Memory required for data: 1978139648
I1129 13:30:44.762168 26105 layer_factory.hpp:77] Creating layer inception_3a/3x3_reduce
I1129 13:30:44.762183 26105 net.cpp:100] Creating Layer inception_3a/3x3_reduce
I1129 13:30:44.762192 26105 net.cpp:434] inception_3a/3x3_reduce <- pool2/3x3_s2_pool2/3x3_s2_0_split_1
I1129 13:30:44.762202 26105 net.cpp:408] inception_3a/3x3_reduce -> inception_3a/3x3_reduce
I1129 13:30:44.762536 26105 net.cpp:150] Setting up inception_3a/3x3_reduce
I1129 13:30:44.762548 26105 net.cpp:157] Top shape: 64 64 28 28 (3211264)
I1129 13:30:44.762554 26105 net.cpp:165] Memory required for data: 1990984704
I1129 13:30:44.762562 26105 layer_factory.hpp:77] Creating layer inception_3a/3x3_reduce/bn
I1129 13:30:44.762572 26105 net.cpp:100] Creating Layer inception_3a/3x3_reduce/bn
I1129 13:30:44.762578 26105 net.cpp:434] inception_3a/3x3_reduce/bn <- inception_3a/3x3_reduce
I1129 13:30:44.762586 26105 net.cpp:408] inception_3a/3x3_reduce/bn -> inception_3a/3x3_reduce/bn
I1129 13:30:44.762828 26105 net.cpp:150] Setting up inception_3a/3x3_reduce/bn
I1129 13:30:44.762840 26105 net.cpp:157] Top shape: 64 64 28 28 (3211264)
I1129 13:30:44.762846 26105 net.cpp:165] Memory required for data: 2003829760
I1129 13:30:44.762869 26105 layer_factory.hpp:77] Creating layer inception_3a/3x3_reduce/bn/sc
I1129 13:30:44.762889 26105 net.cpp:100] Creating Layer inception_3a/3x3_reduce/bn/sc
I1129 13:30:44.762897 26105 net.cpp:434] inception_3a/3x3_reduce/bn/sc <- inception_3a/3x3_reduce/bn
I1129 13:30:44.762908 26105 net.cpp:408] inception_3a/3x3_reduce/bn/sc -> inception_3a/3x3_reduce/bn/sc
I1129 13:30:44.762964 26105 layer_factory.hpp:77] Creating layer inception_3a/3x3_reduce/bn/sc
I1129 13:30:44.763114 26105 net.cpp:150] Setting up inception_3a/3x3_reduce/bn/sc
I1129 13:30:44.763128 26105 net.cpp:157] Top shape: 64 64 28 28 (3211264)
I1129 13:30:44.763134 26105 net.cpp:165] Memory required for data: 2016674816
I1129 13:30:44.763144 26105 layer_factory.hpp:77] Creating layer inception_3a/3x3_reduce/bn/sc/relu
I1129 13:30:44.763152 26105 net.cpp:100] Creating Layer inception_3a/3x3_reduce/bn/sc/relu
I1129 13:30:44.763159 26105 net.cpp:434] inception_3a/3x3_reduce/bn/sc/relu <- inception_3a/3x3_reduce/bn/sc
I1129 13:30:44.763169 26105 net.cpp:395] inception_3a/3x3_reduce/bn/sc/relu -> inception_3a/3x3_reduce/bn/sc (in-place)
I1129 13:30:44.763180 26105 net.cpp:150] Setting up inception_3a/3x3_reduce/bn/sc/relu
I1129 13:30:44.763186 26105 net.cpp:157] Top shape: 64 64 28 28 (3211264)
I1129 13:30:44.763192 26105 net.cpp:165] Memory required for data: 2029519872
I1129 13:30:44.763198 26105 layer_factory.hpp:77] Creating layer inception_3a/3x3
I1129 13:30:44.763209 26105 net.cpp:100] Creating Layer inception_3a/3x3
I1129 13:30:44.763216 26105 net.cpp:434] inception_3a/3x3 <- inception_3a/3x3_reduce/bn/sc
I1129 13:30:44.763227 26105 net.cpp:408] inception_3a/3x3 -> inception_3a/3x3
I1129 13:30:44.764688 26105 net.cpp:150] Setting up inception_3a/3x3
I1129 13:30:44.764708 26105 net.cpp:157] Top shape: 64 64 28 28 (3211264)
I1129 13:30:44.764715 26105 net.cpp:165] Memory required for data: 2042364928
I1129 13:30:44.764724 26105 layer_factory.hpp:77] Creating layer inception_3a/3x3/bn
I1129 13:30:44.764734 26105 net.cpp:100] Creating Layer inception_3a/3x3/bn
I1129 13:30:44.764741 26105 net.cpp:434] inception_3a/3x3/bn <- inception_3a/3x3
I1129 13:30:44.764750 26105 net.cpp:408] inception_3a/3x3/bn -> inception_3a/3x3/bn
I1129 13:30:44.764993 26105 net.cpp:150] Setting up inception_3a/3x3/bn
I1129 13:30:44.765007 26105 net.cpp:157] Top shape: 64 64 28 28 (3211264)
I1129 13:30:44.765013 26105 net.cpp:165] Memory required for data: 2055209984
I1129 13:30:44.765035 26105 layer_factory.hpp:77] Creating layer inception_3a/3x3/bn/sc
I1129 13:30:44.765046 26105 net.cpp:100] Creating Layer inception_3a/3x3/bn/sc
I1129 13:30:44.765060 26105 net.cpp:434] inception_3a/3x3/bn/sc <- inception_3a/3x3/bn
I1129 13:30:44.765084 26105 net.cpp:408] inception_3a/3x3/bn/sc -> inception_3a/3x3/bn/sc
I1129 13:30:44.765142 26105 layer_factory.hpp:77] Creating layer inception_3a/3x3/bn/sc
I1129 13:30:44.765290 26105 net.cpp:150] Setting up inception_3a/3x3/bn/sc
I1129 13:30:44.765302 26105 net.cpp:157] Top shape: 64 64 28 28 (3211264)
I1129 13:30:44.765308 26105 net.cpp:165] Memory required for data: 2068055040
I1129 13:30:44.765318 26105 layer_factory.hpp:77] Creating layer inception_3a/3x3/bn/sc/relu
I1129 13:30:44.765327 26105 net.cpp:100] Creating Layer inception_3a/3x3/bn/sc/relu
I1129 13:30:44.765333 26105 net.cpp:434] inception_3a/3x3/bn/sc/relu <- inception_3a/3x3/bn/sc
I1129 13:30:44.765344 26105 net.cpp:395] inception_3a/3x3/bn/sc/relu -> inception_3a/3x3/bn/sc (in-place)
I1129 13:30:44.765354 26105 net.cpp:150] Setting up inception_3a/3x3/bn/sc/relu
I1129 13:30:44.765362 26105 net.cpp:157] Top shape: 64 64 28 28 (3211264)
I1129 13:30:44.765368 26105 net.cpp:165] Memory required for data: 2080900096
I1129 13:30:44.765374 26105 layer_factory.hpp:77] Creating layer inception_3a/double3x3_reduce
I1129 13:30:44.765386 26105 net.cpp:100] Creating Layer inception_3a/double3x3_reduce
I1129 13:30:44.765393 26105 net.cpp:434] inception_3a/double3x3_reduce <- pool2/3x3_s2_pool2/3x3_s2_0_split_2
I1129 13:30:44.765401 26105 net.cpp:408] inception_3a/double3x3_reduce -> inception_3a/double3x3_reduce
I1129 13:30:44.765733 26105 net.cpp:150] Setting up inception_3a/double3x3_reduce
I1129 13:30:44.765746 26105 net.cpp:157] Top shape: 64 64 28 28 (3211264)
I1129 13:30:44.765753 26105 net.cpp:165] Memory required for data: 2093745152
I1129 13:30:44.765760 26105 layer_factory.hpp:77] Creating layer inception_3a/double3x3_reduce/bn
I1129 13:30:44.765770 26105 net.cpp:100] Creating Layer inception_3a/double3x3_reduce/bn
I1129 13:30:44.765776 26105 net.cpp:434] inception_3a/double3x3_reduce/bn <- inception_3a/double3x3_reduce
I1129 13:30:44.765784 26105 net.cpp:408] inception_3a/double3x3_reduce/bn -> inception_3a/double3x3_reduce/bn
I1129 13:30:44.766029 26105 net.cpp:150] Setting up inception_3a/double3x3_reduce/bn
I1129 13:30:44.766042 26105 net.cpp:157] Top shape: 64 64 28 28 (3211264)
I1129 13:30:44.766048 26105 net.cpp:165] Memory required for data: 2106590208
I1129 13:30:44.766060 26105 layer_factory.hpp:77] Creating layer inception_3a/double3x3_reduce/bn/sc
I1129 13:30:44.766072 26105 net.cpp:100] Creating Layer inception_3a/double3x3_reduce/bn/sc
I1129 13:30:44.766079 26105 net.cpp:434] inception_3a/double3x3_reduce/bn/sc <- inception_3a/double3x3_reduce/bn
I1129 13:30:44.766090 26105 net.cpp:408] inception_3a/double3x3_reduce/bn/sc -> inception_3a/double3x3_reduce/bn/sc
I1129 13:30:44.766141 26105 layer_factory.hpp:77] Creating layer inception_3a/double3x3_reduce/bn/sc
I1129 13:30:44.766286 26105 net.cpp:150] Setting up inception_3a/double3x3_reduce/bn/sc
I1129 13:30:44.766299 26105 net.cpp:157] Top shape: 64 64 28 28 (3211264)
I1129 13:30:44.766305 26105 net.cpp:165] Memory required for data: 2119435264
I1129 13:30:44.766314 26105 layer_factory.hpp:77] Creating layer inception_3a/double3x3_reduce/bn/sc/relu
I1129 13:30:44.766330 26105 net.cpp:100] Creating Layer inception_3a/double3x3_reduce/bn/sc/relu
I1129 13:30:44.766337 26105 net.cpp:434] inception_3a/double3x3_reduce/bn/sc/relu <- inception_3a/double3x3_reduce/bn/sc
I1129 13:30:44.766345 26105 net.cpp:395] inception_3a/double3x3_reduce/bn/sc/relu -> inception_3a/double3x3_reduce/bn/sc (in-place)
I1129 13:30:44.766355 26105 net.cpp:150] Setting up inception_3a/double3x3_reduce/bn/sc/relu
I1129 13:30:44.766362 26105 net.cpp:157] Top shape: 64 64 28 28 (3211264)
I1129 13:30:44.766368 26105 net.cpp:165] Memory required for data: 2132280320
I1129 13:30:44.766374 26105 layer_factory.hpp:77] Creating layer inception_3a/double3x3a
I1129 13:30:44.766388 26105 net.cpp:100] Creating Layer inception_3a/double3x3a
I1129 13:30:44.766394 26105 net.cpp:434] inception_3a/double3x3a <- inception_3a/double3x3_reduce/bn/sc
I1129 13:30:44.766422 26105 net.cpp:408] inception_3a/double3x3a -> inception_3a/double3x3a
I1129 13:30:44.767169 26105 net.cpp:150] Setting up inception_3a/double3x3a
I1129 13:30:44.767186 26105 net.cpp:157] Top shape: 64 96 28 28 (4816896)
I1129 13:30:44.767192 26105 net.cpp:165] Memory required for data: 2151547904
I1129 13:30:44.767200 26105 layer_factory.hpp:77] Creating layer inception_3a/double3x3a/bn
I1129 13:30:44.767210 26105 net.cpp:100] Creating Layer inception_3a/double3x3a/bn
I1129 13:30:44.767216 26105 net.cpp:434] inception_3a/double3x3a/bn <- inception_3a/double3x3a
I1129 13:30:44.767225 26105 net.cpp:408] inception_3a/double3x3a/bn -> inception_3a/double3x3a/bn
I1129 13:30:44.767468 26105 net.cpp:150] Setting up inception_3a/double3x3a/bn
I1129 13:30:44.767482 26105 net.cpp:157] Top shape: 64 96 28 28 (4816896)
I1129 13:30:44.767488 26105 net.cpp:165] Memory required for data: 2170815488
I1129 13:30:44.767498 26105 layer_factory.hpp:77] Creating layer inception_3a/double3x3a/bn/sc
I1129 13:30:44.767511 26105 net.cpp:100] Creating Layer inception_3a/double3x3a/bn/sc
I1129 13:30:44.767518 26105 net.cpp:434] inception_3a/double3x3a/bn/sc <- inception_3a/double3x3a/bn
I1129 13:30:44.767527 26105 net.cpp:408] inception_3a/double3x3a/bn/sc -> inception_3a/double3x3a/bn/sc
I1129 13:30:44.767580 26105 layer_factory.hpp:77] Creating layer inception_3a/double3x3a/bn/sc
I1129 13:30:44.767724 26105 net.cpp:150] Setting up inception_3a/double3x3a/bn/sc
I1129 13:30:44.767736 26105 net.cpp:157] Top shape: 64 96 28 28 (4816896)
I1129 13:30:44.767741 26105 net.cpp:165] Memory required for data: 2190083072
I1129 13:30:44.767751 26105 layer_factory.hpp:77] Creating layer inception_3a/double3x3a/bn/sc/relu
I1129 13:30:44.767762 26105 net.cpp:100] Creating Layer inception_3a/double3x3a/bn/sc/relu
I1129 13:30:44.767770 26105 net.cpp:434] inception_3a/double3x3a/bn/sc/relu <- inception_3a/double3x3a/bn/sc
I1129 13:30:44.767779 26105 net.cpp:395] inception_3a/double3x3a/bn/sc/relu -> inception_3a/double3x3a/bn/sc (in-place)
I1129 13:30:44.767789 26105 net.cpp:150] Setting up inception_3a/double3x3a/bn/sc/relu
I1129 13:30:44.767796 26105 net.cpp:157] Top shape: 64 96 28 28 (4816896)
I1129 13:30:44.767802 26105 net.cpp:165] Memory required for data: 2209350656
I1129 13:30:44.767808 26105 layer_factory.hpp:77] Creating layer inception_3a/double3x3b
I1129 13:30:44.767820 26105 net.cpp:100] Creating Layer inception_3a/double3x3b
I1129 13:30:44.767827 26105 net.cpp:434] inception_3a/double3x3b <- inception_3a/double3x3a/bn/sc
I1129 13:30:44.767838 26105 net.cpp:408] inception_3a/double3x3b -> inception_3a/double3x3b
I1129 13:30:44.768829 26105 net.cpp:150] Setting up inception_3a/double3x3b
I1129 13:30:44.768843 26105 net.cpp:157] Top shape: 64 96 28 28 (4816896)
I1129 13:30:44.768849 26105 net.cpp:165] Memory required for data: 2228618240
I1129 13:30:44.768857 26105 layer_factory.hpp:77] Creating layer inception_3a/double3x3b/bn
I1129 13:30:44.768872 26105 net.cpp:100] Creating Layer inception_3a/double3x3b/bn
I1129 13:30:44.768880 26105 net.cpp:434] inception_3a/double3x3b/bn <- inception_3a/double3x3b
I1129 13:30:44.768888 26105 net.cpp:408] inception_3a/double3x3b/bn -> inception_3a/double3x3b/bn
I1129 13:30:44.769127 26105 net.cpp:150] Setting up inception_3a/double3x3b/bn
I1129 13:30:44.769140 26105 net.cpp:157] Top shape: 64 96 28 28 (4816896)
I1129 13:30:44.769145 26105 net.cpp:165] Memory required for data: 2247885824
I1129 13:30:44.769157 26105 layer_factory.hpp:77] Creating layer inception_3a/double3x3b/bn/sc
I1129 13:30:44.769166 26105 net.cpp:100] Creating Layer inception_3a/double3x3b/bn/sc
I1129 13:30:44.769173 26105 net.cpp:434] inception_3a/double3x3b/bn/sc <- inception_3a/double3x3b/bn
I1129 13:30:44.769181 26105 net.cpp:408] inception_3a/double3x3b/bn/sc -> inception_3a/double3x3b/bn/sc
I1129 13:30:44.769238 26105 layer_factory.hpp:77] Creating layer inception_3a/double3x3b/bn/sc
I1129 13:30:44.769383 26105 net.cpp:150] Setting up inception_3a/double3x3b/bn/sc
I1129 13:30:44.769402 26105 net.cpp:157] Top shape: 64 96 28 28 (4816896)
I1129 13:30:44.769418 26105 net.cpp:165] Memory required for data: 2267153408
I1129 13:30:44.769426 26105 layer_factory.hpp:77] Creating layer inception_3a/double3x3b/bn/sc/relu
I1129 13:30:44.769436 26105 net.cpp:100] Creating Layer inception_3a/double3x3b/bn/sc/relu
I1129 13:30:44.769443 26105 net.cpp:434] inception_3a/double3x3b/bn/sc/relu <- inception_3a/double3x3b/bn/sc
I1129 13:30:44.769450 26105 net.cpp:395] inception_3a/double3x3b/bn/sc/relu -> inception_3a/double3x3b/bn/sc (in-place)
I1129 13:30:44.769459 26105 net.cpp:150] Setting up inception_3a/double3x3b/bn/sc/relu
I1129 13:30:44.769467 26105 net.cpp:157] Top shape: 64 96 28 28 (4816896)
I1129 13:30:44.769474 26105 net.cpp:165] Memory required for data: 2286420992
I1129 13:30:44.769479 26105 layer_factory.hpp:77] Creating layer inception_3a/pool
I1129 13:30:44.769490 26105 net.cpp:100] Creating Layer inception_3a/pool
I1129 13:30:44.769498 26105 net.cpp:434] inception_3a/pool <- pool2/3x3_s2_pool2/3x3_s2_0_split_3
I1129 13:30:44.769506 26105 net.cpp:408] inception_3a/pool -> inception_3a/pool
I1129 13:30:44.769541 26105 net.cpp:150] Setting up inception_3a/pool
I1129 13:30:44.769552 26105 net.cpp:157] Top shape: 64 192 28 28 (9633792)
I1129 13:30:44.769558 26105 net.cpp:165] Memory required for data: 2324956160
I1129 13:30:44.769564 26105 layer_factory.hpp:77] Creating layer inception_3a/pool_proj
I1129 13:30:44.769578 26105 net.cpp:100] Creating Layer inception_3a/pool_proj
I1129 13:30:44.769587 26105 net.cpp:434] inception_3a/pool_proj <- inception_3a/pool
I1129 13:30:44.769595 26105 net.cpp:408] inception_3a/pool_proj -> inception_3a/pool_proj
I1129 13:30:44.769862 26105 net.cpp:150] Setting up inception_3a/pool_proj
I1129 13:30:44.769876 26105 net.cpp:157] Top shape: 64 32 28 28 (1605632)
I1129 13:30:44.769881 26105 net.cpp:165] Memory required for data: 2331378688
I1129 13:30:44.769891 26105 layer_factory.hpp:77] Creating layer inception_3a/pool_proj/bn
I1129 13:30:44.769899 26105 net.cpp:100] Creating Layer inception_3a/pool_proj/bn
I1129 13:30:44.769906 26105 net.cpp:434] inception_3a/pool_proj/bn <- inception_3a/pool_proj
I1129 13:30:44.769913 26105 net.cpp:408] inception_3a/pool_proj/bn -> inception_3a/pool_proj/bn
I1129 13:30:44.770155 26105 net.cpp:150] Setting up inception_3a/pool_proj/bn
I1129 13:30:44.770167 26105 net.cpp:157] Top shape: 64 32 28 28 (1605632)
I1129 13:30:44.770174 26105 net.cpp:165] Memory required for data: 2337801216
I1129 13:30:44.770184 26105 layer_factory.hpp:77] Creating layer inception_3a/pool_proj/bn/sc
I1129 13:30:44.770197 26105 net.cpp:100] Creating Layer inception_3a/pool_proj/bn/sc
I1129 13:30:44.770205 26105 net.cpp:434] inception_3a/pool_proj/bn/sc <- inception_3a/pool_proj/bn
I1129 13:30:44.770213 26105 net.cpp:408] inception_3a/pool_proj/bn/sc -> inception_3a/pool_proj/bn/sc
I1129 13:30:44.770267 26105 layer_factory.hpp:77] Creating layer inception_3a/pool_proj/bn/sc
I1129 13:30:44.770412 26105 net.cpp:150] Setting up inception_3a/pool_proj/bn/sc
I1129 13:30:44.770424 26105 net.cpp:157] Top shape: 64 32 28 28 (1605632)
I1129 13:30:44.770429 26105 net.cpp:165] Memory required for data: 2344223744
I1129 13:30:44.770438 26105 layer_factory.hpp:77] Creating layer inception_3a/pool_proj/bn/sc/relu
I1129 13:30:44.770453 26105 net.cpp:100] Creating Layer inception_3a/pool_proj/bn/sc/relu
I1129 13:30:44.770460 26105 net.cpp:434] inception_3a/pool_proj/bn/sc/relu <- inception_3a/pool_proj/bn/sc
I1129 13:30:44.770469 26105 net.cpp:395] inception_3a/pool_proj/bn/sc/relu -> inception_3a/pool_proj/bn/sc (in-place)
I1129 13:30:44.770478 26105 net.cpp:150] Setting up inception_3a/pool_proj/bn/sc/relu
I1129 13:30:44.770486 26105 net.cpp:157] Top shape: 64 32 28 28 (1605632)
I1129 13:30:44.770491 26105 net.cpp:165] Memory required for data: 2350646272
I1129 13:30:44.770498 26105 layer_factory.hpp:77] Creating layer inception_3a/output
I1129 13:30:44.770517 26105 net.cpp:100] Creating Layer inception_3a/output
I1129 13:30:44.770524 26105 net.cpp:434] inception_3a/output <- inception_3a/1x1/bn/sc
I1129 13:30:44.770541 26105 net.cpp:434] inception_3a/output <- inception_3a/3x3/bn/sc
I1129 13:30:44.770557 26105 net.cpp:434] inception_3a/output <- inception_3a/double3x3b/bn/sc
I1129 13:30:44.770565 26105 net.cpp:434] inception_3a/output <- inception_3a/pool_proj/bn/sc
I1129 13:30:44.770572 26105 net.cpp:408] inception_3a/output -> inception_3a/output
I1129 13:30:44.770609 26105 net.cpp:150] Setting up inception_3a/output
I1129 13:30:44.770620 26105 net.cpp:157] Top shape: 64 256 28 28 (12845056)
I1129 13:30:44.770627 26105 net.cpp:165] Memory required for data: 2402026496
I1129 13:30:44.770632 26105 layer_factory.hpp:77] Creating layer inception_3a/output_inception_3a/output_0_split
I1129 13:30:44.770643 26105 net.cpp:100] Creating Layer inception_3a/output_inception_3a/output_0_split
I1129 13:30:44.770650 26105 net.cpp:434] inception_3a/output_inception_3a/output_0_split <- inception_3a/output
I1129 13:30:44.770659 26105 net.cpp:408] inception_3a/output_inception_3a/output_0_split -> inception_3a/output_inception_3a/output_0_split_0
I1129 13:30:44.770669 26105 net.cpp:408] inception_3a/output_inception_3a/output_0_split -> inception_3a/output_inception_3a/output_0_split_1
I1129 13:30:44.770678 26105 net.cpp:408] inception_3a/output_inception_3a/output_0_split -> inception_3a/output_inception_3a/output_0_split_2
I1129 13:30:44.770687 26105 net.cpp:408] inception_3a/output_inception_3a/output_0_split -> inception_3a/output_inception_3a/output_0_split_3
I1129 13:30:44.770753 26105 net.cpp:150] Setting up inception_3a/output_inception_3a/output_0_split
I1129 13:30:44.770764 26105 net.cpp:157] Top shape: 64 256 28 28 (12845056)
I1129 13:30:44.770771 26105 net.cpp:157] Top shape: 64 256 28 28 (12845056)
I1129 13:30:44.770778 26105 net.cpp:157] Top shape: 64 256 28 28 (12845056)
I1129 13:30:44.770786 26105 net.cpp:157] Top shape: 64 256 28 28 (12845056)
I1129 13:30:44.770790 26105 net.cpp:165] Memory required for data: 2607547392
I1129 13:30:44.770797 26105 layer_factory.hpp:77] Creating layer inception_3b/1x1
I1129 13:30:44.770808 26105 net.cpp:100] Creating Layer inception_3b/1x1
I1129 13:30:44.770814 26105 net.cpp:434] inception_3b/1x1 <- inception_3a/output_inception_3a/output_0_split_0
I1129 13:30:44.770828 26105 net.cpp:408] inception_3b/1x1 -> inception_3b/1x1
I1129 13:30:44.771205 26105 net.cpp:150] Setting up inception_3b/1x1
I1129 13:30:44.771221 26105 net.cpp:157] Top shape: 64 64 28 28 (3211264)
I1129 13:30:44.771227 26105 net.cpp:165] Memory required for data: 2620392448
I1129 13:30:44.771235 26105 layer_factory.hpp:77] Creating layer inception_3b/1x1/bn
I1129 13:30:44.771247 26105 net.cpp:100] Creating Layer inception_3b/1x1/bn
I1129 13:30:44.771255 26105 net.cpp:434] inception_3b/1x1/bn <- inception_3b/1x1
I1129 13:30:44.771263 26105 net.cpp:408] inception_3b/1x1/bn -> inception_3b/1x1/bn
I1129 13:30:44.771499 26105 net.cpp:150] Setting up inception_3b/1x1/bn
I1129 13:30:44.771512 26105 net.cpp:157] Top shape: 64 64 28 28 (3211264)
I1129 13:30:44.771517 26105 net.cpp:165] Memory required for data: 2633237504
I1129 13:30:44.771528 26105 layer_factory.hpp:77] Creating layer inception_3b/1x1/bn/sc
I1129 13:30:44.771538 26105 net.cpp:100] Creating Layer inception_3b/1x1/bn/sc
I1129 13:30:44.771544 26105 net.cpp:434] inception_3b/1x1/bn/sc <- inception_3b/1x1/bn
I1129 13:30:44.771553 26105 net.cpp:408] inception_3b/1x1/bn/sc -> inception_3b/1x1/bn/sc
I1129 13:30:44.771605 26105 layer_factory.hpp:77] Creating layer inception_3b/1x1/bn/sc
I1129 13:30:44.771749 26105 net.cpp:150] Setting up inception_3b/1x1/bn/sc
I1129 13:30:44.771760 26105 net.cpp:157] Top shape: 64 64 28 28 (3211264)
I1129 13:30:44.771766 26105 net.cpp:165] Memory required for data: 2646082560
I1129 13:30:44.771790 26105 layer_factory.hpp:77] Creating layer inception_3b/1x1/bn/sc/relu
I1129 13:30:44.771800 26105 net.cpp:100] Creating Layer inception_3b/1x1/bn/sc/relu
I1129 13:30:44.771807 26105 net.cpp:434] inception_3b/1x1/bn/sc/relu <- inception_3b/1x1/bn/sc
I1129 13:30:44.771814 26105 net.cpp:395] inception_3b/1x1/bn/sc/relu -> inception_3b/1x1/bn/sc (in-place)
I1129 13:30:44.771838 26105 net.cpp:150] Setting up inception_3b/1x1/bn/sc/relu
I1129 13:30:44.771847 26105 net.cpp:157] Top shape: 64 64 28 28 (3211264)
I1129 13:30:44.771853 26105 net.cpp:165] Memory required for data: 2658927616
I1129 13:30:44.771858 26105 layer_factory.hpp:77] Creating layer inception_3b/3x3_reduce
I1129 13:30:44.771872 26105 net.cpp:100] Creating Layer inception_3b/3x3_reduce
I1129 13:30:44.771879 26105 net.cpp:434] inception_3b/3x3_reduce <- inception_3a/output_inception_3a/output_0_split_1
I1129 13:30:44.771889 26105 net.cpp:408] inception_3b/3x3_reduce -> inception_3b/3x3_reduce
I1129 13:30:44.772260 26105 net.cpp:150] Setting up inception_3b/3x3_reduce
I1129 13:30:44.772274 26105 net.cpp:157] Top shape: 64 64 28 28 (3211264)
I1129 13:30:44.772279 26105 net.cpp:165] Memory required for data: 2671772672
I1129 13:30:44.772287 26105 layer_factory.hpp:77] Creating layer inception_3b/3x3_reduce/bn
I1129 13:30:44.772296 26105 net.cpp:100] Creating Layer inception_3b/3x3_reduce/bn
I1129 13:30:44.772303 26105 net.cpp:434] inception_3b/3x3_reduce/bn <- inception_3b/3x3_reduce
I1129 13:30:44.772311 26105 net.cpp:408] inception_3b/3x3_reduce/bn -> inception_3b/3x3_reduce/bn
I1129 13:30:44.772562 26105 net.cpp:150] Setting up inception_3b/3x3_reduce/bn
I1129 13:30:44.772575 26105 net.cpp:157] Top shape: 64 64 28 28 (3211264)
I1129 13:30:44.772581 26105 net.cpp:165] Memory required for data: 2684617728
I1129 13:30:44.772593 26105 layer_factory.hpp:77] Creating layer inception_3b/3x3_reduce/bn/sc
I1129 13:30:44.772604 26105 net.cpp:100] Creating Layer inception_3b/3x3_reduce/bn/sc
I1129 13:30:44.772611 26105 net.cpp:434] inception_3b/3x3_reduce/bn/sc <- inception_3b/3x3_reduce/bn
I1129 13:30:44.772619 26105 net.cpp:408] inception_3b/3x3_reduce/bn/sc -> inception_3b/3x3_reduce/bn/sc
I1129 13:30:44.772673 26105 layer_factory.hpp:77] Creating layer inception_3b/3x3_reduce/bn/sc
I1129 13:30:44.772819 26105 net.cpp:150] Setting up inception_3b/3x3_reduce/bn/sc
I1129 13:30:44.772830 26105 net.cpp:157] Top shape: 64 64 28 28 (3211264)
I1129 13:30:44.772836 26105 net.cpp:165] Memory required for data: 2697462784
I1129 13:30:44.772845 26105 layer_factory.hpp:77] Creating layer inception_3b/3x3_reduce/bn/sc/relu
I1129 13:30:44.772857 26105 net.cpp:100] Creating Layer inception_3b/3x3_reduce/bn/sc/relu
I1129 13:30:44.772864 26105 net.cpp:434] inception_3b/3x3_reduce/bn/sc/relu <- inception_3b/3x3_reduce/bn/sc
I1129 13:30:44.772871 26105 net.cpp:395] inception_3b/3x3_reduce/bn/sc/relu -> inception_3b/3x3_reduce/bn/sc (in-place)
I1129 13:30:44.772881 26105 net.cpp:150] Setting up inception_3b/3x3_reduce/bn/sc/relu
I1129 13:30:44.772889 26105 net.cpp:157] Top shape: 64 64 28 28 (3211264)
I1129 13:30:44.772894 26105 net.cpp:165] Memory required for data: 2710307840
I1129 13:30:44.772900 26105 layer_factory.hpp:77] Creating layer inception_3b/3x3
I1129 13:30:44.772915 26105 net.cpp:100] Creating Layer inception_3b/3x3
I1129 13:30:44.772923 26105 net.cpp:434] inception_3b/3x3 <- inception_3b/3x3_reduce/bn/sc
I1129 13:30:44.772933 26105 net.cpp:408] inception_3b/3x3 -> inception_3b/3x3
I1129 13:30:44.773671 26105 net.cpp:150] Setting up inception_3b/3x3
I1129 13:30:44.773685 26105 net.cpp:157] Top shape: 64 96 28 28 (4816896)
I1129 13:30:44.773690 26105 net.cpp:165] Memory required for data: 2729575424
I1129 13:30:44.773699 26105 layer_factory.hpp:77] Creating layer inception_3b/3x3/bn
I1129 13:30:44.773710 26105 net.cpp:100] Creating Layer inception_3b/3x3/bn
I1129 13:30:44.773717 26105 net.cpp:434] inception_3b/3x3/bn <- inception_3b/3x3
I1129 13:30:44.773725 26105 net.cpp:408] inception_3b/3x3/bn -> inception_3b/3x3/bn
I1129 13:30:44.773977 26105 net.cpp:150] Setting up inception_3b/3x3/bn
I1129 13:30:44.773988 26105 net.cpp:157] Top shape: 64 96 28 28 (4816896)
I1129 13:30:44.773994 26105 net.cpp:165] Memory required for data: 2748843008
I1129 13:30:44.774006 26105 layer_factory.hpp:77] Creating layer inception_3b/3x3/bn/sc
I1129 13:30:44.774015 26105 net.cpp:100] Creating Layer inception_3b/3x3/bn/sc
I1129 13:30:44.774029 26105 net.cpp:434] inception_3b/3x3/bn/sc <- inception_3b/3x3/bn
I1129 13:30:44.774044 26105 net.cpp:408] inception_3b/3x3/bn/sc -> inception_3b/3x3/bn/sc
I1129 13:30:44.774102 26105 layer_factory.hpp:77] Creating layer inception_3b/3x3/bn/sc
I1129 13:30:44.774252 26105 net.cpp:150] Setting up inception_3b/3x3/bn/sc
I1129 13:30:44.774267 26105 net.cpp:157] Top shape: 64 96 28 28 (4816896)
I1129 13:30:44.774273 26105 net.cpp:165] Memory required for data: 2768110592
I1129 13:30:44.774282 26105 layer_factory.hpp:77] Creating layer inception_3b/3x3/bn/sc/relu
I1129 13:30:44.774291 26105 net.cpp:100] Creating Layer inception_3b/3x3/bn/sc/relu
I1129 13:30:44.774298 26105 net.cpp:434] inception_3b/3x3/bn/sc/relu <- inception_3b/3x3/bn/sc
I1129 13:30:44.774305 26105 net.cpp:395] inception_3b/3x3/bn/sc/relu -> inception_3b/3x3/bn/sc (in-place)
I1129 13:30:44.774315 26105 net.cpp:150] Setting up inception_3b/3x3/bn/sc/relu
I1129 13:30:44.774322 26105 net.cpp:157] Top shape: 64 96 28 28 (4816896)
I1129 13:30:44.774328 26105 net.cpp:165] Memory required for data: 2787378176
I1129 13:30:44.774334 26105 layer_factory.hpp:77] Creating layer inception_3b/double3x3_reduce
I1129 13:30:44.774348 26105 net.cpp:100] Creating Layer inception_3b/double3x3_reduce
I1129 13:30:44.774355 26105 net.cpp:434] inception_3b/double3x3_reduce <- inception_3a/output_inception_3a/output_0_split_2
I1129 13:30:44.774368 26105 net.cpp:408] inception_3b/double3x3_reduce -> inception_3b/double3x3_reduce
I1129 13:30:44.774739 26105 net.cpp:150] Setting up inception_3b/double3x3_reduce
I1129 13:30:44.774752 26105 net.cpp:157] Top shape: 64 64 28 28 (3211264)
I1129 13:30:44.774758 26105 net.cpp:165] Memory required for data: 2800223232
I1129 13:30:44.774765 26105 layer_factory.hpp:77] Creating layer inception_3b/double3x3_reduce/bn
I1129 13:30:44.774775 26105 net.cpp:100] Creating Layer inception_3b/double3x3_reduce/bn
I1129 13:30:44.774781 26105 net.cpp:434] inception_3b/double3x3_reduce/bn <- inception_3b/double3x3_reduce
I1129 13:30:44.774790 26105 net.cpp:408] inception_3b/double3x3_reduce/bn -> inception_3b/double3x3_reduce/bn
I1129 13:30:44.775051 26105 net.cpp:150] Setting up inception_3b/double3x3_reduce/bn
I1129 13:30:44.775066 26105 net.cpp:157] Top shape: 64 64 28 28 (3211264)
I1129 13:30:44.775074 26105 net.cpp:165] Memory required for data: 2813068288
I1129 13:30:44.775084 26105 layer_factory.hpp:77] Creating layer inception_3b/double3x3_reduce/bn/sc
I1129 13:30:44.775096 26105 net.cpp:100] Creating Layer inception_3b/double3x3_reduce/bn/sc
I1129 13:30:44.775104 26105 net.cpp:434] inception_3b/double3x3_reduce/bn/sc <- inception_3b/double3x3_reduce/bn
I1129 13:30:44.775111 26105 net.cpp:408] inception_3b/double3x3_reduce/bn/sc -> inception_3b/double3x3_reduce/bn/sc
I1129 13:30:44.775166 26105 layer_factory.hpp:77] Creating layer inception_3b/double3x3_reduce/bn/sc
I1129 13:30:44.775311 26105 net.cpp:150] Setting up inception_3b/double3x3_reduce/bn/sc
I1129 13:30:44.775324 26105 net.cpp:157] Top shape: 64 64 28 28 (3211264)
I1129 13:30:44.775329 26105 net.cpp:165] Memory required for data: 2825913344
I1129 13:30:44.775339 26105 layer_factory.hpp:77] Creating layer inception_3b/double3x3_reduce/bn/sc/relu
I1129 13:30:44.775351 26105 net.cpp:100] Creating Layer inception_3b/double3x3_reduce/bn/sc/relu
I1129 13:30:44.775357 26105 net.cpp:434] inception_3b/double3x3_reduce/bn/sc/relu <- inception_3b/double3x3_reduce/bn/sc
I1129 13:30:44.775365 26105 net.cpp:395] inception_3b/double3x3_reduce/bn/sc/relu -> inception_3b/double3x3_reduce/bn/sc (in-place)
I1129 13:30:44.775374 26105 net.cpp:150] Setting up inception_3b/double3x3_reduce/bn/sc/relu
I1129 13:30:44.775382 26105 net.cpp:157] Top shape: 64 64 28 28 (3211264)
I1129 13:30:44.775388 26105 net.cpp:165] Memory required for data: 2838758400
I1129 13:30:44.775393 26105 layer_factory.hpp:77] Creating layer inception_3b/double3x3a
I1129 13:30:44.775416 26105 net.cpp:100] Creating Layer inception_3b/double3x3a
I1129 13:30:44.775424 26105 net.cpp:434] inception_3b/double3x3a <- inception_3b/double3x3_reduce/bn/sc
I1129 13:30:44.775455 26105 net.cpp:408] inception_3b/double3x3a -> inception_3b/double3x3a
I1129 13:30:44.776199 26105 net.cpp:150] Setting up inception_3b/double3x3a
I1129 13:30:44.776213 26105 net.cpp:157] Top shape: 64 96 28 28 (4816896)
I1129 13:30:44.776219 26105 net.cpp:165] Memory required for data: 2858025984
I1129 13:30:44.776228 26105 layer_factory.hpp:77] Creating layer inception_3b/double3x3a/bn
I1129 13:30:44.776237 26105 net.cpp:100] Creating Layer inception_3b/double3x3a/bn
I1129 13:30:44.776244 26105 net.cpp:434] inception_3b/double3x3a/bn <- inception_3b/double3x3a
I1129 13:30:44.776252 26105 net.cpp:408] inception_3b/double3x3a/bn -> inception_3b/double3x3a/bn
I1129 13:30:44.776500 26105 net.cpp:150] Setting up inception_3b/double3x3a/bn
I1129 13:30:44.776512 26105 net.cpp:157] Top shape: 64 96 28 28 (4816896)
I1129 13:30:44.776518 26105 net.cpp:165] Memory required for data: 2877293568
I1129 13:30:44.776530 26105 layer_factory.hpp:77] Creating layer inception_3b/double3x3a/bn/sc
I1129 13:30:44.776540 26105 net.cpp:100] Creating Layer inception_3b/double3x3a/bn/sc
I1129 13:30:44.776546 26105 net.cpp:434] inception_3b/double3x3a/bn/sc <- inception_3b/double3x3a/bn
I1129 13:30:44.776556 26105 net.cpp:408] inception_3b/double3x3a/bn/sc -> inception_3b/double3x3a/bn/sc
I1129 13:30:44.776612 26105 layer_factory.hpp:77] Creating layer inception_3b/double3x3a/bn/sc
I1129 13:30:44.776760 26105 net.cpp:150] Setting up inception_3b/double3x3a/bn/sc
I1129 13:30:44.776772 26105 net.cpp:157] Top shape: 64 96 28 28 (4816896)
I1129 13:30:44.776778 26105 net.cpp:165] Memory required for data: 2896561152
I1129 13:30:44.776787 26105 layer_factory.hpp:77] Creating layer inception_3b/double3x3a/bn/sc/relu
I1129 13:30:44.776798 26105 net.cpp:100] Creating Layer inception_3b/double3x3a/bn/sc/relu
I1129 13:30:44.776805 26105 net.cpp:434] inception_3b/double3x3a/bn/sc/relu <- inception_3b/double3x3a/bn/sc
I1129 13:30:44.776813 26105 net.cpp:395] inception_3b/double3x3a/bn/sc/relu -> inception_3b/double3x3a/bn/sc (in-place)
I1129 13:30:44.776823 26105 net.cpp:150] Setting up inception_3b/double3x3a/bn/sc/relu
I1129 13:30:44.776830 26105 net.cpp:157] Top shape: 64 96 28 28 (4816896)
I1129 13:30:44.776836 26105 net.cpp:165] Memory required for data: 2915828736
I1129 13:30:44.776842 26105 layer_factory.hpp:77] Creating layer inception_3b/double3x3b
I1129 13:30:44.776855 26105 net.cpp:100] Creating Layer inception_3b/double3x3b
I1129 13:30:44.776862 26105 net.cpp:434] inception_3b/double3x3b <- inception_3b/double3x3a/bn/sc
I1129 13:30:44.776871 26105 net.cpp:408] inception_3b/double3x3b -> inception_3b/double3x3b
I1129 13:30:44.778782 26105 net.cpp:150] Setting up inception_3b/double3x3b
I1129 13:30:44.778805 26105 net.cpp:157] Top shape: 64 96 28 28 (4816896)
I1129 13:30:44.778810 26105 net.cpp:165] Memory required for data: 2935096320
I1129 13:30:44.778820 26105 layer_factory.hpp:77] Creating layer inception_3b/double3x3b/bn
I1129 13:30:44.778831 26105 net.cpp:100] Creating Layer inception_3b/double3x3b/bn
I1129 13:30:44.778837 26105 net.cpp:434] inception_3b/double3x3b/bn <- inception_3b/double3x3b
I1129 13:30:44.778846 26105 net.cpp:408] inception_3b/double3x3b/bn -> inception_3b/double3x3b/bn
I1129 13:30:44.779117 26105 net.cpp:150] Setting up inception_3b/double3x3b/bn
I1129 13:30:44.779134 26105 net.cpp:157] Top shape: 64 96 28 28 (4816896)
I1129 13:30:44.779139 26105 net.cpp:165] Memory required for data: 2954363904
I1129 13:30:44.779151 26105 layer_factory.hpp:77] Creating layer inception_3b/double3x3b/bn/sc
I1129 13:30:44.779163 26105 net.cpp:100] Creating Layer inception_3b/double3x3b/bn/sc
I1129 13:30:44.779171 26105 net.cpp:434] inception_3b/double3x3b/bn/sc <- inception_3b/double3x3b/bn
I1129 13:30:44.779180 26105 net.cpp:408] inception_3b/double3x3b/bn/sc -> inception_3b/double3x3b/bn/sc
I1129 13:30:44.779247 26105 layer_factory.hpp:77] Creating layer inception_3b/double3x3b/bn/sc
I1129 13:30:44.779397 26105 net.cpp:150] Setting up inception_3b/double3x3b/bn/sc
I1129 13:30:44.779418 26105 net.cpp:157] Top shape: 64 96 28 28 (4816896)
I1129 13:30:44.779433 26105 net.cpp:165] Memory required for data: 2973631488
I1129 13:30:44.779444 26105 layer_factory.hpp:77] Creating layer inception_3b/double3x3b/bn/sc/relu
I1129 13:30:44.779453 26105 net.cpp:100] Creating Layer inception_3b/double3x3b/bn/sc/relu
I1129 13:30:44.779460 26105 net.cpp:434] inception_3b/double3x3b/bn/sc/relu <- inception_3b/double3x3b/bn/sc
I1129 13:30:44.779469 26105 net.cpp:395] inception_3b/double3x3b/bn/sc/relu -> inception_3b/double3x3b/bn/sc (in-place)
I1129 13:30:44.779479 26105 net.cpp:150] Setting up inception_3b/double3x3b/bn/sc/relu
I1129 13:30:44.779486 26105 net.cpp:157] Top shape: 64 96 28 28 (4816896)
I1129 13:30:44.779491 26105 net.cpp:165] Memory required for data: 2992899072
I1129 13:30:44.779497 26105 layer_factory.hpp:77] Creating layer inception_3b/pool
I1129 13:30:44.779506 26105 net.cpp:100] Creating Layer inception_3b/pool
I1129 13:30:44.779512 26105 net.cpp:434] inception_3b/pool <- inception_3a/output_inception_3a/output_0_split_3
I1129 13:30:44.779523 26105 net.cpp:408] inception_3b/pool -> inception_3b/pool
I1129 13:30:44.779557 26105 net.cpp:150] Setting up inception_3b/pool
I1129 13:30:44.779568 26105 net.cpp:157] Top shape: 64 256 28 28 (12845056)
I1129 13:30:44.779573 26105 net.cpp:165] Memory required for data: 3044279296
I1129 13:30:44.779579 26105 layer_factory.hpp:77] Creating layer inception_3b/pool_proj
I1129 13:30:44.779594 26105 net.cpp:100] Creating Layer inception_3b/pool_proj
I1129 13:30:44.779602 26105 net.cpp:434] inception_3b/pool_proj <- inception_3b/pool
I1129 13:30:44.779611 26105 net.cpp:408] inception_3b/pool_proj -> inception_3b/pool_proj
I1129 13:30:44.779991 26105 net.cpp:150] Setting up inception_3b/pool_proj
I1129 13:30:44.780005 26105 net.cpp:157] Top shape: 64 64 28 28 (3211264)
I1129 13:30:44.780011 26105 net.cpp:165] Memory required for data: 3057124352
I1129 13:30:44.780019 26105 layer_factory.hpp:77] Creating layer inception_3b/pool_proj/bn
I1129 13:30:44.780031 26105 net.cpp:100] Creating Layer inception_3b/pool_proj/bn
I1129 13:30:44.780038 26105 net.cpp:434] inception_3b/pool_proj/bn <- inception_3b/pool_proj
I1129 13:30:44.780046 26105 net.cpp:408] inception_3b/pool_proj/bn -> inception_3b/pool_proj/bn
I1129 13:30:44.780293 26105 net.cpp:150] Setting up inception_3b/pool_proj/bn
I1129 13:30:44.780305 26105 net.cpp:157] Top shape: 64 64 28 28 (3211264)
I1129 13:30:44.780311 26105 net.cpp:165] Memory required for data: 3069969408
I1129 13:30:44.780323 26105 layer_factory.hpp:77] Creating layer inception_3b/pool_proj/bn/sc
I1129 13:30:44.780333 26105 net.cpp:100] Creating Layer inception_3b/pool_proj/bn/sc
I1129 13:30:44.780339 26105 net.cpp:434] inception_3b/pool_proj/bn/sc <- inception_3b/pool_proj/bn
I1129 13:30:44.780349 26105 net.cpp:408] inception_3b/pool_proj/bn/sc -> inception_3b/pool_proj/bn/sc
I1129 13:30:44.780401 26105 layer_factory.hpp:77] Creating layer inception_3b/pool_proj/bn/sc
I1129 13:30:44.780556 26105 net.cpp:150] Setting up inception_3b/pool_proj/bn/sc
I1129 13:30:44.780570 26105 net.cpp:157] Top shape: 64 64 28 28 (3211264)
I1129 13:30:44.780575 26105 net.cpp:165] Memory required for data: 3082814464
I1129 13:30:44.780585 26105 layer_factory.hpp:77] Creating layer inception_3b/pool_proj/bn/sc/relu
I1129 13:30:44.780593 26105 net.cpp:100] Creating Layer inception_3b/pool_proj/bn/sc/relu
I1129 13:30:44.780601 26105 net.cpp:434] inception_3b/pool_proj/bn/sc/relu <- inception_3b/pool_proj/bn/sc
I1129 13:30:44.780611 26105 net.cpp:395] inception_3b/pool_proj/bn/sc/relu -> inception_3b/pool_proj/bn/sc (in-place)
I1129 13:30:44.780622 26105 net.cpp:150] Setting up inception_3b/pool_proj/bn/sc/relu
I1129 13:30:44.780629 26105 net.cpp:157] Top shape: 64 64 28 28 (3211264)
I1129 13:30:44.780634 26105 net.cpp:165] Memory required for data: 3095659520
I1129 13:30:44.780640 26105 layer_factory.hpp:77] Creating layer inception_3b/output
I1129 13:30:44.780649 26105 net.cpp:100] Creating Layer inception_3b/output
I1129 13:30:44.780661 26105 net.cpp:434] inception_3b/output <- inception_3b/1x1/bn/sc
I1129 13:30:44.780676 26105 net.cpp:434] inception_3b/output <- inception_3b/3x3/bn/sc
I1129 13:30:44.780684 26105 net.cpp:434] inception_3b/output <- inception_3b/double3x3b/bn/sc
I1129 13:30:44.780691 26105 net.cpp:434] inception_3b/output <- inception_3b/pool_proj/bn/sc
I1129 13:30:44.780701 26105 net.cpp:408] inception_3b/output -> inception_3b/output
I1129 13:30:44.780735 26105 net.cpp:150] Setting up inception_3b/output
I1129 13:30:44.780745 26105 net.cpp:157] Top shape: 64 320 28 28 (16056320)
I1129 13:30:44.780751 26105 net.cpp:165] Memory required for data: 3159884800
I1129 13:30:44.780757 26105 layer_factory.hpp:77] Creating layer inception_3b/output_inception_3b/output_0_split
I1129 13:30:44.780768 26105 net.cpp:100] Creating Layer inception_3b/output_inception_3b/output_0_split
I1129 13:30:44.780776 26105 net.cpp:434] inception_3b/output_inception_3b/output_0_split <- inception_3b/output
I1129 13:30:44.780784 26105 net.cpp:408] inception_3b/output_inception_3b/output_0_split -> inception_3b/output_inception_3b/output_0_split_0
I1129 13:30:44.780793 26105 net.cpp:408] inception_3b/output_inception_3b/output_0_split -> inception_3b/output_inception_3b/output_0_split_1
I1129 13:30:44.780803 26105 net.cpp:408] inception_3b/output_inception_3b/output_0_split -> inception_3b/output_inception_3b/output_0_split_2
I1129 13:30:44.780860 26105 net.cpp:150] Setting up inception_3b/output_inception_3b/output_0_split
I1129 13:30:44.780870 26105 net.cpp:157] Top shape: 64 320 28 28 (16056320)
I1129 13:30:44.780877 26105 net.cpp:157] Top shape: 64 320 28 28 (16056320)
I1129 13:30:44.780884 26105 net.cpp:157] Top shape: 64 320 28 28 (16056320)
I1129 13:30:44.780889 26105 net.cpp:165] Memory required for data: 3352560640
I1129 13:30:44.780895 26105 layer_factory.hpp:77] Creating layer inception_3c/3x3_reduce
I1129 13:30:44.780910 26105 net.cpp:100] Creating Layer inception_3c/3x3_reduce
I1129 13:30:44.780916 26105 net.cpp:434] inception_3c/3x3_reduce <- inception_3b/output_inception_3b/output_0_split_0
I1129 13:30:44.780928 26105 net.cpp:408] inception_3c/3x3_reduce -> inception_3c/3x3_reduce
I1129 13:30:44.781533 26105 net.cpp:150] Setting up inception_3c/3x3_reduce
I1129 13:30:44.781546 26105 net.cpp:157] Top shape: 64 128 28 28 (6422528)
I1129 13:30:44.781553 26105 net.cpp:165] Memory required for data: 3378250752
I1129 13:30:44.781560 26105 layer_factory.hpp:77] Creating layer inception_3c/3x3_reduce/bn
I1129 13:30:44.781569 26105 net.cpp:100] Creating Layer inception_3c/3x3_reduce/bn
I1129 13:30:44.781576 26105 net.cpp:434] inception_3c/3x3_reduce/bn <- inception_3c/3x3_reduce
I1129 13:30:44.781584 26105 net.cpp:408] inception_3c/3x3_reduce/bn -> inception_3c/3x3_reduce/bn
I1129 13:30:44.781823 26105 net.cpp:150] Setting up inception_3c/3x3_reduce/bn
I1129 13:30:44.781836 26105 net.cpp:157] Top shape: 64 128 28 28 (6422528)
I1129 13:30:44.781842 26105 net.cpp:165] Memory required for data: 3403940864
I1129 13:30:44.781853 26105 layer_factory.hpp:77] Creating layer inception_3c/3x3_reduce/bn/sc
I1129 13:30:44.781863 26105 net.cpp:100] Creating Layer inception_3c/3x3_reduce/bn/sc
I1129 13:30:44.781870 26105 net.cpp:434] inception_3c/3x3_reduce/bn/sc <- inception_3c/3x3_reduce/bn
I1129 13:30:44.781878 26105 net.cpp:408] inception_3c/3x3_reduce/bn/sc -> inception_3c/3x3_reduce/bn/sc
I1129 13:30:44.781931 26105 layer_factory.hpp:77] Creating layer inception_3c/3x3_reduce/bn/sc
I1129 13:30:44.782064 26105 net.cpp:150] Setting up inception_3c/3x3_reduce/bn/sc
I1129 13:30:44.782076 26105 net.cpp:157] Top shape: 64 128 28 28 (6422528)
I1129 13:30:44.782083 26105 net.cpp:165] Memory required for data: 3429630976
I1129 13:30:44.782091 26105 layer_factory.hpp:77] Creating layer inception_3c/3x3_reduce/bn/sc/relu
I1129 13:30:44.782104 26105 net.cpp:100] Creating Layer inception_3c/3x3_reduce/bn/sc/relu
I1129 13:30:44.782110 26105 net.cpp:434] inception_3c/3x3_reduce/bn/sc/relu <- inception_3c/3x3_reduce/bn/sc
I1129 13:30:44.782117 26105 net.cpp:395] inception_3c/3x3_reduce/bn/sc/relu -> inception_3c/3x3_reduce/bn/sc (in-place)
I1129 13:30:44.782140 26105 net.cpp:150] Setting up inception_3c/3x3_reduce/bn/sc/relu
I1129 13:30:44.782148 26105 net.cpp:157] Top shape: 64 128 28 28 (6422528)
I1129 13:30:44.782155 26105 net.cpp:165] Memory required for data: 3455321088
I1129 13:30:44.782160 26105 layer_factory.hpp:77] Creating layer inception_3c/3x3
I1129 13:30:44.782173 26105 net.cpp:100] Creating Layer inception_3c/3x3
I1129 13:30:44.782181 26105 net.cpp:434] inception_3c/3x3 <- inception_3c/3x3_reduce/bn/sc
I1129 13:30:44.782189 26105 net.cpp:408] inception_3c/3x3 -> inception_3c/3x3
I1129 13:30:44.785063 26105 net.cpp:150] Setting up inception_3c/3x3
I1129 13:30:44.785086 26105 net.cpp:157] Top shape: 64 160 14 14 (2007040)
I1129 13:30:44.785092 26105 net.cpp:165] Memory required for data: 3463349248
I1129 13:30:44.785102 26105 layer_factory.hpp:77] Creating layer inception_3c/3x3/bn
I1129 13:30:44.785112 26105 net.cpp:100] Creating Layer inception_3c/3x3/bn
I1129 13:30:44.785120 26105 net.cpp:434] inception_3c/3x3/bn <- inception_3c/3x3
I1129 13:30:44.785131 26105 net.cpp:408] inception_3c/3x3/bn -> inception_3c/3x3/bn
I1129 13:30:44.785388 26105 net.cpp:150] Setting up inception_3c/3x3/bn
I1129 13:30:44.785403 26105 net.cpp:157] Top shape: 64 160 14 14 (2007040)
I1129 13:30:44.785409 26105 net.cpp:165] Memory required for data: 3471377408
I1129 13:30:44.785421 26105 layer_factory.hpp:77] Creating layer inception_3c/3x3/bn/sc
I1129 13:30:44.785431 26105 net.cpp:100] Creating Layer inception_3c/3x3/bn/sc
I1129 13:30:44.785439 26105 net.cpp:434] inception_3c/3x3/bn/sc <- inception_3c/3x3/bn
I1129 13:30:44.785446 26105 net.cpp:408] inception_3c/3x3/bn/sc -> inception_3c/3x3/bn/sc
I1129 13:30:44.785502 26105 layer_factory.hpp:77] Creating layer inception_3c/3x3/bn/sc
I1129 13:30:44.785643 26105 net.cpp:150] Setting up inception_3c/3x3/bn/sc
I1129 13:30:44.785655 26105 net.cpp:157] Top shape: 64 160 14 14 (2007040)
I1129 13:30:44.785661 26105 net.cpp:165] Memory required for data: 3479405568
I1129 13:30:44.785670 26105 layer_factory.hpp:77] Creating layer inception_3c/3x3/bn/sc/relu
I1129 13:30:44.785682 26105 net.cpp:100] Creating Layer inception_3c/3x3/bn/sc/relu
I1129 13:30:44.785689 26105 net.cpp:434] inception_3c/3x3/bn/sc/relu <- inception_3c/3x3/bn/sc
I1129 13:30:44.785697 26105 net.cpp:395] inception_3c/3x3/bn/sc/relu -> inception_3c/3x3/bn/sc (in-place)
I1129 13:30:44.785707 26105 net.cpp:150] Setting up inception_3c/3x3/bn/sc/relu
I1129 13:30:44.785715 26105 net.cpp:157] Top shape: 64 160 14 14 (2007040)
I1129 13:30:44.785720 26105 net.cpp:165] Memory required for data: 3487433728
I1129 13:30:44.785727 26105 layer_factory.hpp:77] Creating layer inception_3c/double3x3_reduce
I1129 13:30:44.785740 26105 net.cpp:100] Creating Layer inception_3c/double3x3_reduce
I1129 13:30:44.785748 26105 net.cpp:434] inception_3c/double3x3_reduce <- inception_3b/output_inception_3b/output_0_split_1
I1129 13:30:44.785756 26105 net.cpp:408] inception_3c/double3x3_reduce -> inception_3c/double3x3_reduce
I1129 13:30:44.787092 26105 net.cpp:150] Setting up inception_3c/double3x3_reduce
I1129 13:30:44.787116 26105 net.cpp:157] Top shape: 64 64 28 28 (3211264)
I1129 13:30:44.787122 26105 net.cpp:165] Memory required for data: 3500278784
I1129 13:30:44.787130 26105 layer_factory.hpp:77] Creating layer inception_3c/double3x3_reduce/bn
I1129 13:30:44.787143 26105 net.cpp:100] Creating Layer inception_3c/double3x3_reduce/bn
I1129 13:30:44.787152 26105 net.cpp:434] inception_3c/double3x3_reduce/bn <- inception_3c/double3x3_reduce
I1129 13:30:44.787160 26105 net.cpp:408] inception_3c/double3x3_reduce/bn -> inception_3c/double3x3_reduce/bn
I1129 13:30:44.787418 26105 net.cpp:150] Setting up inception_3c/double3x3_reduce/bn
I1129 13:30:44.787431 26105 net.cpp:157] Top shape: 64 64 28 28 (3211264)
I1129 13:30:44.787437 26105 net.cpp:165] Memory required for data: 3513123840
I1129 13:30:44.787449 26105 layer_factory.hpp:77] Creating layer inception_3c/double3x3_reduce/bn/sc
I1129 13:30:44.787458 26105 net.cpp:100] Creating Layer inception_3c/double3x3_reduce/bn/sc
I1129 13:30:44.787473 26105 net.cpp:434] inception_3c/double3x3_reduce/bn/sc <- inception_3c/double3x3_reduce/bn
I1129 13:30:44.787490 26105 net.cpp:408] inception_3c/double3x3_reduce/bn/sc -> inception_3c/double3x3_reduce/bn/sc
I1129 13:30:44.787549 26105 layer_factory.hpp:77] Creating layer inception_3c/double3x3_reduce/bn/sc
I1129 13:30:44.787703 26105 net.cpp:150] Setting up inception_3c/double3x3_reduce/bn/sc
I1129 13:30:44.787717 26105 net.cpp:157] Top shape: 64 64 28 28 (3211264)
I1129 13:30:44.787724 26105 net.cpp:165] Memory required for data: 3525968896
I1129 13:30:44.787734 26105 layer_factory.hpp:77] Creating layer inception_3c/double3x3_reduce/bn/sc/relu
I1129 13:30:44.787742 26105 net.cpp:100] Creating Layer inception_3c/double3x3_reduce/bn/sc/relu
I1129 13:30:44.787750 26105 net.cpp:434] inception_3c/double3x3_reduce/bn/sc/relu <- inception_3c/double3x3_reduce/bn/sc
I1129 13:30:44.787756 26105 net.cpp:395] inception_3c/double3x3_reduce/bn/sc/relu -> inception_3c/double3x3_reduce/bn/sc (in-place)
I1129 13:30:44.787766 26105 net.cpp:150] Setting up inception_3c/double3x3_reduce/bn/sc/relu
I1129 13:30:44.787775 26105 net.cpp:157] Top shape: 64 64 28 28 (3211264)
I1129 13:30:44.787780 26105 net.cpp:165] Memory required for data: 3538813952
I1129 13:30:44.787786 26105 layer_factory.hpp:77] Creating layer inception_3c/double3x3a
I1129 13:30:44.787799 26105 net.cpp:100] Creating Layer inception_3c/double3x3a
I1129 13:30:44.787806 26105 net.cpp:434] inception_3c/double3x3a <- inception_3c/double3x3_reduce/bn/sc
I1129 13:30:44.787818 26105 net.cpp:408] inception_3c/double3x3a -> inception_3c/double3x3a
I1129 13:30:44.788571 26105 net.cpp:150] Setting up inception_3c/double3x3a
I1129 13:30:44.788586 26105 net.cpp:157] Top shape: 64 96 28 28 (4816896)
I1129 13:30:44.788592 26105 net.cpp:165] Memory required for data: 3558081536
I1129 13:30:44.788601 26105 layer_factory.hpp:77] Creating layer inception_3c/double3x3a/bn
I1129 13:30:44.788610 26105 net.cpp:100] Creating Layer inception_3c/double3x3a/bn
I1129 13:30:44.788617 26105 net.cpp:434] inception_3c/double3x3a/bn <- inception_3c/double3x3a
I1129 13:30:44.788625 26105 net.cpp:408] inception_3c/double3x3a/bn -> inception_3c/double3x3a/bn
I1129 13:30:44.788888 26105 net.cpp:150] Setting up inception_3c/double3x3a/bn
I1129 13:30:44.788902 26105 net.cpp:157] Top shape: 64 96 28 28 (4816896)
I1129 13:30:44.788908 26105 net.cpp:165] Memory required for data: 3577349120
I1129 13:30:44.788918 26105 layer_factory.hpp:77] Creating layer inception_3c/double3x3a/bn/sc
I1129 13:30:44.788930 26105 net.cpp:100] Creating Layer inception_3c/double3x3a/bn/sc
I1129 13:30:44.788938 26105 net.cpp:434] inception_3c/double3x3a/bn/sc <- inception_3c/double3x3a/bn
I1129 13:30:44.788945 26105 net.cpp:408] inception_3c/double3x3a/bn/sc -> inception_3c/double3x3a/bn/sc
I1129 13:30:44.789001 26105 layer_factory.hpp:77] Creating layer inception_3c/double3x3a/bn/sc
I1129 13:30:44.789155 26105 net.cpp:150] Setting up inception_3c/double3x3a/bn/sc
I1129 13:30:44.789166 26105 net.cpp:157] Top shape: 64 96 28 28 (4816896)
I1129 13:30:44.789172 26105 net.cpp:165] Memory required for data: 3596616704
I1129 13:30:44.789181 26105 layer_factory.hpp:77] Creating layer inception_3c/double3x3a/bn/sc/relu
I1129 13:30:44.789192 26105 net.cpp:100] Creating Layer inception_3c/double3x3a/bn/sc/relu
I1129 13:30:44.789199 26105 net.cpp:434] inception_3c/double3x3a/bn/sc/relu <- inception_3c/double3x3a/bn/sc
I1129 13:30:44.789207 26105 net.cpp:395] inception_3c/double3x3a/bn/sc/relu -> inception_3c/double3x3a/bn/sc (in-place)
I1129 13:30:44.789217 26105 net.cpp:150] Setting up inception_3c/double3x3a/bn/sc/relu
I1129 13:30:44.789224 26105 net.cpp:157] Top shape: 64 96 28 28 (4816896)
I1129 13:30:44.789230 26105 net.cpp:165] Memory required for data: 3615884288
I1129 13:30:44.789237 26105 layer_factory.hpp:77] Creating layer inception_3c/double3x3b
I1129 13:30:44.789250 26105 net.cpp:100] Creating Layer inception_3c/double3x3b
I1129 13:30:44.789257 26105 net.cpp:434] inception_3c/double3x3b <- inception_3c/double3x3a/bn/sc
I1129 13:30:44.789280 26105 net.cpp:408] inception_3c/double3x3b -> inception_3c/double3x3b
I1129 13:30:44.790290 26105 net.cpp:150] Setting up inception_3c/double3x3b
I1129 13:30:44.790304 26105 net.cpp:157] Top shape: 64 96 14 14 (1204224)
I1129 13:30:44.790312 26105 net.cpp:165] Memory required for data: 3620701184
I1129 13:30:44.790318 26105 layer_factory.hpp:77] Creating layer inception_3c/double3x3b/bn
I1129 13:30:44.790330 26105 net.cpp:100] Creating Layer inception_3c/double3x3b/bn
I1129 13:30:44.790338 26105 net.cpp:434] inception_3c/double3x3b/bn <- inception_3c/double3x3b
I1129 13:30:44.790345 26105 net.cpp:408] inception_3c/double3x3b/bn -> inception_3c/double3x3b/bn
I1129 13:30:44.790602 26105 net.cpp:150] Setting up inception_3c/double3x3b/bn
I1129 13:30:44.790614 26105 net.cpp:157] Top shape: 64 96 14 14 (1204224)
I1129 13:30:44.790621 26105 net.cpp:165] Memory required for data: 3625518080
I1129 13:30:44.790652 26105 layer_factory.hpp:77] Creating layer inception_3c/double3x3b/bn/sc
I1129 13:30:44.790663 26105 net.cpp:100] Creating Layer inception_3c/double3x3b/bn/sc
I1129 13:30:44.790670 26105 net.cpp:434] inception_3c/double3x3b/bn/sc <- inception_3c/double3x3b/bn
I1129 13:30:44.790678 26105 net.cpp:408] inception_3c/double3x3b/bn/sc -> inception_3c/double3x3b/bn/sc
I1129 13:30:44.790738 26105 layer_factory.hpp:77] Creating layer inception_3c/double3x3b/bn/sc
I1129 13:30:44.790900 26105 net.cpp:150] Setting up inception_3c/double3x3b/bn/sc
I1129 13:30:44.790916 26105 net.cpp:157] Top shape: 64 96 14 14 (1204224)
I1129 13:30:44.790922 26105 net.cpp:165] Memory required for data: 3630334976
I1129 13:30:44.790932 26105 layer_factory.hpp:77] Creating layer inception_3c/double3x3b/bn/sc/relu
I1129 13:30:44.790941 26105 net.cpp:100] Creating Layer inception_3c/double3x3b/bn/sc/relu
I1129 13:30:44.790947 26105 net.cpp:434] inception_3c/double3x3b/bn/sc/relu <- inception_3c/double3x3b/bn/sc
I1129 13:30:44.790956 26105 net.cpp:395] inception_3c/double3x3b/bn/sc/relu -> inception_3c/double3x3b/bn/sc (in-place)
I1129 13:30:44.790964 26105 net.cpp:150] Setting up inception_3c/double3x3b/bn/sc/relu
I1129 13:30:44.790972 26105 net.cpp:157] Top shape: 64 96 14 14 (1204224)
I1129 13:30:44.790978 26105 net.cpp:165] Memory required for data: 3635151872
I1129 13:30:44.790984 26105 layer_factory.hpp:77] Creating layer inception_3c/pool
I1129 13:30:44.790992 26105 net.cpp:100] Creating Layer inception_3c/pool
I1129 13:30:44.790999 26105 net.cpp:434] inception_3c/pool <- inception_3b/output_inception_3b/output_0_split_2
I1129 13:30:44.791007 26105 net.cpp:408] inception_3c/pool -> inception_3c/pool
I1129 13:30:44.791062 26105 net.cpp:150] Setting up inception_3c/pool
I1129 13:30:44.791074 26105 net.cpp:157] Top shape: 64 320 14 14 (4014080)
I1129 13:30:44.791079 26105 net.cpp:165] Memory required for data: 3651208192
I1129 13:30:44.791085 26105 layer_factory.hpp:77] Creating layer inception_3c/output
I1129 13:30:44.791097 26105 net.cpp:100] Creating Layer inception_3c/output
I1129 13:30:44.791105 26105 net.cpp:434] inception_3c/output <- inception_3c/3x3/bn/sc
I1129 13:30:44.791111 26105 net.cpp:434] inception_3c/output <- inception_3c/double3x3b/bn/sc
I1129 13:30:44.791118 26105 net.cpp:434] inception_3c/output <- inception_3c/pool
I1129 13:30:44.791126 26105 net.cpp:408] inception_3c/output -> inception_3c/output
I1129 13:30:44.791158 26105 net.cpp:150] Setting up inception_3c/output
I1129 13:30:44.791168 26105 net.cpp:157] Top shape: 64 576 14 14 (7225344)
I1129 13:30:44.791174 26105 net.cpp:165] Memory required for data: 3680109568
I1129 13:30:44.791180 26105 layer_factory.hpp:77] Creating layer inception_3c/output_inception_3c/output_0_split
I1129 13:30:44.791189 26105 net.cpp:100] Creating Layer inception_3c/output_inception_3c/output_0_split
I1129 13:30:44.791195 26105 net.cpp:434] inception_3c/output_inception_3c/output_0_split <- inception_3c/output
I1129 13:30:44.791206 26105 net.cpp:408] inception_3c/output_inception_3c/output_0_split -> inception_3c/output_inception_3c/output_0_split_0
I1129 13:30:44.791224 26105 net.cpp:408] inception_3c/output_inception_3c/output_0_split -> inception_3c/output_inception_3c/output_0_split_1
I1129 13:30:44.791242 26105 net.cpp:408] inception_3c/output_inception_3c/output_0_split -> inception_3c/output_inception_3c/output_0_split_2
I1129 13:30:44.791252 26105 net.cpp:408] inception_3c/output_inception_3c/output_0_split -> inception_3c/output_inception_3c/output_0_split_3
I1129 13:30:44.791261 26105 net.cpp:408] inception_3c/output_inception_3c/output_0_split -> inception_3c/output_inception_3c/output_0_split_4
I1129 13:30:44.791347 26105 net.cpp:150] Setting up inception_3c/output_inception_3c/output_0_split
I1129 13:30:44.791360 26105 net.cpp:157] Top shape: 64 576 14 14 (7225344)
I1129 13:30:44.791368 26105 net.cpp:157] Top shape: 64 576 14 14 (7225344)
I1129 13:30:44.791374 26105 net.cpp:157] Top shape: 64 576 14 14 (7225344)
I1129 13:30:44.791380 26105 net.cpp:157] Top shape: 64 576 14 14 (7225344)
I1129 13:30:44.791388 26105 net.cpp:157] Top shape: 64 576 14 14 (7225344)
I1129 13:30:44.791393 26105 net.cpp:165] Memory required for data: 3824616448
I1129 13:30:44.791399 26105 layer_factory.hpp:77] Creating layer pool3/5x5_s3
I1129 13:30:44.791407 26105 net.cpp:100] Creating Layer pool3/5x5_s3
I1129 13:30:44.791414 26105 net.cpp:434] pool3/5x5_s3 <- inception_3c/output_inception_3c/output_0_split_0
I1129 13:30:44.791421 26105 net.cpp:408] pool3/5x5_s3 -> pool3/5x5_s3
I1129 13:30:44.791453 26105 net.cpp:150] Setting up pool3/5x5_s3
I1129 13:30:44.791465 26105 net.cpp:157] Top shape: 64 576 4 4 (589824)
I1129 13:30:44.791470 26105 net.cpp:165] Memory required for data: 3826975744
I1129 13:30:44.791476 26105 layer_factory.hpp:77] Creating layer loss1/conv
I1129 13:30:44.791489 26105 net.cpp:100] Creating Layer loss1/conv
I1129 13:30:44.791497 26105 net.cpp:434] loss1/conv <- pool3/5x5_s3
I1129 13:30:44.791508 26105 net.cpp:408] loss1/conv -> loss1/conv
I1129 13:30:44.792425 26105 net.cpp:150] Setting up loss1/conv
I1129 13:30:44.792440 26105 net.cpp:157] Top shape: 64 128 4 4 (131072)
I1129 13:30:44.792445 26105 net.cpp:165] Memory required for data: 3827500032
I1129 13:30:44.792454 26105 layer_factory.hpp:77] Creating layer loss1/conv/bn
I1129 13:30:44.792465 26105 net.cpp:100] Creating Layer loss1/conv/bn
I1129 13:30:44.792472 26105 net.cpp:434] loss1/conv/bn <- loss1/conv
I1129 13:30:44.792480 26105 net.cpp:408] loss1/conv/bn -> loss1/conv/bn
I1129 13:30:44.792722 26105 net.cpp:150] Setting up loss1/conv/bn
I1129 13:30:44.792735 26105 net.cpp:157] Top shape: 64 128 4 4 (131072)
I1129 13:30:44.792742 26105 net.cpp:165] Memory required for data: 3828024320
I1129 13:30:44.792755 26105 layer_factory.hpp:77] Creating layer loss1/conv/bn/sc
I1129 13:30:44.792765 26105 net.cpp:100] Creating Layer loss1/conv/bn/sc
I1129 13:30:44.792771 26105 net.cpp:434] loss1/conv/bn/sc <- loss1/conv/bn
I1129 13:30:44.792779 26105 net.cpp:408] loss1/conv/bn/sc -> loss1/conv/bn/sc
I1129 13:30:44.792834 26105 layer_factory.hpp:77] Creating layer loss1/conv/bn/sc
I1129 13:30:44.792974 26105 net.cpp:150] Setting up loss1/conv/bn/sc
I1129 13:30:44.792986 26105 net.cpp:157] Top shape: 64 128 4 4 (131072)
I1129 13:30:44.792992 26105 net.cpp:165] Memory required for data: 3828548608
I1129 13:30:44.793001 26105 layer_factory.hpp:77] Creating layer loss1/conv/bn/sc/relu
I1129 13:30:44.793014 26105 net.cpp:100] Creating Layer loss1/conv/bn/sc/relu
I1129 13:30:44.793020 26105 net.cpp:434] loss1/conv/bn/sc/relu <- loss1/conv/bn/sc
I1129 13:30:44.793028 26105 net.cpp:395] loss1/conv/bn/sc/relu -> loss1/conv/bn/sc (in-place)
I1129 13:30:44.793037 26105 net.cpp:150] Setting up loss1/conv/bn/sc/relu
I1129 13:30:44.793045 26105 net.cpp:157] Top shape: 64 128 4 4 (131072)
I1129 13:30:44.793051 26105 net.cpp:165] Memory required for data: 3829072896
I1129 13:30:44.793056 26105 layer_factory.hpp:77] Creating layer loss1/fc
I1129 13:30:44.793069 26105 net.cpp:100] Creating Layer loss1/fc
I1129 13:30:44.793076 26105 net.cpp:434] loss1/fc <- loss1/conv/bn/sc
I1129 13:30:44.793084 26105 net.cpp:408] loss1/fc -> loss1/fc
I1129 13:30:44.817224 26105 net.cpp:150] Setting up loss1/fc
I1129 13:30:44.817258 26105 net.cpp:157] Top shape: 64 1024 (65536)
I1129 13:30:44.817266 26105 net.cpp:165] Memory required for data: 3829335040
I1129 13:30:44.817276 26105 layer_factory.hpp:77] Creating layer loss1/fc/bn
I1129 13:30:44.817286 26105 net.cpp:100] Creating Layer loss1/fc/bn
I1129 13:30:44.817292 26105 net.cpp:434] loss1/fc/bn <- loss1/fc
I1129 13:30:44.817301 26105 net.cpp:408] loss1/fc/bn -> loss1/fc/bn
I1129 13:30:44.817561 26105 net.cpp:150] Setting up loss1/fc/bn
I1129 13:30:44.817575 26105 net.cpp:157] Top shape: 64 1024 (65536)
I1129 13:30:44.817581 26105 net.cpp:165] Memory required for data: 3829597184
I1129 13:30:44.817594 26105 layer_factory.hpp:77] Creating layer loss1/fc/bn/sc
I1129 13:30:44.817606 26105 net.cpp:100] Creating Layer loss1/fc/bn/sc
I1129 13:30:44.817613 26105 net.cpp:434] loss1/fc/bn/sc <- loss1/fc/bn
I1129 13:30:44.817622 26105 net.cpp:408] loss1/fc/bn/sc -> loss1/fc/bn/sc
I1129 13:30:44.817677 26105 layer_factory.hpp:77] Creating layer loss1/fc/bn/sc
I1129 13:30:44.817822 26105 net.cpp:150] Setting up loss1/fc/bn/sc
I1129 13:30:44.817836 26105 net.cpp:157] Top shape: 64 1024 (65536)
I1129 13:30:44.817842 26105 net.cpp:165] Memory required for data: 3829859328
I1129 13:30:44.817852 26105 layer_factory.hpp:77] Creating layer loss1/fc/bn/sc/relu
I1129 13:30:44.817860 26105 net.cpp:100] Creating Layer loss1/fc/bn/sc/relu
I1129 13:30:44.817867 26105 net.cpp:434] loss1/fc/bn/sc/relu <- loss1/fc/bn/sc
I1129 13:30:44.817878 26105 net.cpp:395] loss1/fc/bn/sc/relu -> loss1/fc/bn/sc (in-place)
I1129 13:30:44.817888 26105 net.cpp:150] Setting up loss1/fc/bn/sc/relu
I1129 13:30:44.817895 26105 net.cpp:157] Top shape: 64 1024 (65536)
I1129 13:30:44.817901 26105 net.cpp:165] Memory required for data: 3830121472
I1129 13:30:44.817909 26105 layer_factory.hpp:77] Creating layer loss1/classifier
I1129 13:30:44.817919 26105 net.cpp:100] Creating Layer loss1/classifier
I1129 13:30:44.817927 26105 net.cpp:434] loss1/classifier <- loss1/fc/bn/sc
I1129 13:30:44.817936 26105 net.cpp:408] loss1/classifier -> loss1/classifier
I1129 13:30:44.830026 26105 net.cpp:150] Setting up loss1/classifier
I1129 13:30:44.830049 26105 net.cpp:157] Top shape: 64 1000 (64000)
I1129 13:30:44.830056 26105 net.cpp:165] Memory required for data: 3830377472
I1129 13:30:44.830066 26105 layer_factory.hpp:77] Creating layer loss1/loss
I1129 13:30:44.830077 26105 net.cpp:100] Creating Layer loss1/loss
I1129 13:30:44.830085 26105 net.cpp:434] loss1/loss <- loss1/classifier
I1129 13:30:44.830093 26105 net.cpp:434] loss1/loss <- label_data_1_split_0
I1129 13:30:44.830104 26105 net.cpp:408] loss1/loss -> loss1/loss
I1129 13:30:44.830121 26105 layer_factory.hpp:77] Creating layer loss1/loss
I1129 13:30:44.830313 26105 net.cpp:150] Setting up loss1/loss
I1129 13:30:44.830328 26105 net.cpp:157] Top shape: (1)
I1129 13:30:44.830334 26105 net.cpp:160]     with loss weight 0.3
I1129 13:30:44.830363 26105 net.cpp:165] Memory required for data: 3830377476
I1129 13:30:44.830369 26105 layer_factory.hpp:77] Creating layer inception_4a/1x1
I1129 13:30:44.830385 26105 net.cpp:100] Creating Layer inception_4a/1x1
I1129 13:30:44.830394 26105 net.cpp:434] inception_4a/1x1 <- inception_3c/output_inception_3c/output_0_split_1
I1129 13:30:44.830402 26105 net.cpp:408] inception_4a/1x1 -> inception_4a/1x1
I1129 13:30:44.832767 26105 net.cpp:150] Setting up inception_4a/1x1
I1129 13:30:44.832790 26105 net.cpp:157] Top shape: 64 224 14 14 (2809856)
I1129 13:30:44.832798 26105 net.cpp:165] Memory required for data: 3841616900
I1129 13:30:44.832806 26105 layer_factory.hpp:77] Creating layer inception_4a/1x1/bn
I1129 13:30:44.832819 26105 net.cpp:100] Creating Layer inception_4a/1x1/bn
I1129 13:30:44.832828 26105 net.cpp:434] inception_4a/1x1/bn <- inception_4a/1x1
I1129 13:30:44.832836 26105 net.cpp:408] inception_4a/1x1/bn -> inception_4a/1x1/bn
I1129 13:30:44.833093 26105 net.cpp:150] Setting up inception_4a/1x1/bn
I1129 13:30:44.833107 26105 net.cpp:157] Top shape: 64 224 14 14 (2809856)
I1129 13:30:44.833119 26105 net.cpp:165] Memory required for data: 3852856324
I1129 13:30:44.833142 26105 layer_factory.hpp:77] Creating layer inception_4a/1x1/bn/sc
I1129 13:30:44.833153 26105 net.cpp:100] Creating Layer inception_4a/1x1/bn/sc
I1129 13:30:44.833159 26105 net.cpp:434] inception_4a/1x1/bn/sc <- inception_4a/1x1/bn
I1129 13:30:44.833168 26105 net.cpp:408] inception_4a/1x1/bn/sc -> inception_4a/1x1/bn/sc
I1129 13:30:44.833225 26105 layer_factory.hpp:77] Creating layer inception_4a/1x1/bn/sc
I1129 13:30:44.833380 26105 net.cpp:150] Setting up inception_4a/1x1/bn/sc
I1129 13:30:44.833392 26105 net.cpp:157] Top shape: 64 224 14 14 (2809856)
I1129 13:30:44.833398 26105 net.cpp:165] Memory required for data: 3864095748
I1129 13:30:44.833408 26105 layer_factory.hpp:77] Creating layer inception_4a/1x1/bn/sc/relu
I1129 13:30:44.833417 26105 net.cpp:100] Creating Layer inception_4a/1x1/bn/sc/relu
I1129 13:30:44.833425 26105 net.cpp:434] inception_4a/1x1/bn/sc/relu <- inception_4a/1x1/bn/sc
I1129 13:30:44.833438 26105 net.cpp:395] inception_4a/1x1/bn/sc/relu -> inception_4a/1x1/bn/sc (in-place)
I1129 13:30:44.833449 26105 net.cpp:150] Setting up inception_4a/1x1/bn/sc/relu
I1129 13:30:44.833458 26105 net.cpp:157] Top shape: 64 224 14 14 (2809856)
I1129 13:30:44.833463 26105 net.cpp:165] Memory required for data: 3875335172
I1129 13:30:44.833469 26105 layer_factory.hpp:77] Creating layer inception_4a/3x3_reduce
I1129 13:30:44.833484 26105 net.cpp:100] Creating Layer inception_4a/3x3_reduce
I1129 13:30:44.833492 26105 net.cpp:434] inception_4a/3x3_reduce <- inception_3c/output_inception_3c/output_0_split_2
I1129 13:30:44.833501 26105 net.cpp:408] inception_4a/3x3_reduce -> inception_4a/3x3_reduce
I1129 13:30:44.834084 26105 net.cpp:150] Setting up inception_4a/3x3_reduce
I1129 13:30:44.834097 26105 net.cpp:157] Top shape: 64 64 14 14 (802816)
I1129 13:30:44.834103 26105 net.cpp:165] Memory required for data: 3878546436
I1129 13:30:44.834111 26105 layer_factory.hpp:77] Creating layer inception_4a/3x3_reduce/bn
I1129 13:30:44.834120 26105 net.cpp:100] Creating Layer inception_4a/3x3_reduce/bn
I1129 13:30:44.834130 26105 net.cpp:434] inception_4a/3x3_reduce/bn <- inception_4a/3x3_reduce
I1129 13:30:44.834137 26105 net.cpp:408] inception_4a/3x3_reduce/bn -> inception_4a/3x3_reduce/bn
I1129 13:30:44.834394 26105 net.cpp:150] Setting up inception_4a/3x3_reduce/bn
I1129 13:30:44.834408 26105 net.cpp:157] Top shape: 64 64 14 14 (802816)
I1129 13:30:44.834414 26105 net.cpp:165] Memory required for data: 3881757700
I1129 13:30:44.834425 26105 layer_factory.hpp:77] Creating layer inception_4a/3x3_reduce/bn/sc
I1129 13:30:44.834437 26105 net.cpp:100] Creating Layer inception_4a/3x3_reduce/bn/sc
I1129 13:30:44.834444 26105 net.cpp:434] inception_4a/3x3_reduce/bn/sc <- inception_4a/3x3_reduce/bn
I1129 13:30:44.834455 26105 net.cpp:408] inception_4a/3x3_reduce/bn/sc -> inception_4a/3x3_reduce/bn/sc
I1129 13:30:44.834508 26105 layer_factory.hpp:77] Creating layer inception_4a/3x3_reduce/bn/sc
I1129 13:30:44.834656 26105 net.cpp:150] Setting up inception_4a/3x3_reduce/bn/sc
I1129 13:30:44.834669 26105 net.cpp:157] Top shape: 64 64 14 14 (802816)
I1129 13:30:44.834676 26105 net.cpp:165] Memory required for data: 3884968964
I1129 13:30:44.834684 26105 layer_factory.hpp:77] Creating layer inception_4a/3x3_reduce/bn/sc/relu
I1129 13:30:44.834693 26105 net.cpp:100] Creating Layer inception_4a/3x3_reduce/bn/sc/relu
I1129 13:30:44.834700 26105 net.cpp:434] inception_4a/3x3_reduce/bn/sc/relu <- inception_4a/3x3_reduce/bn/sc
I1129 13:30:44.834712 26105 net.cpp:395] inception_4a/3x3_reduce/bn/sc/relu -> inception_4a/3x3_reduce/bn/sc (in-place)
I1129 13:30:44.834722 26105 net.cpp:150] Setting up inception_4a/3x3_reduce/bn/sc/relu
I1129 13:30:44.834729 26105 net.cpp:157] Top shape: 64 64 14 14 (802816)
I1129 13:30:44.834735 26105 net.cpp:165] Memory required for data: 3888180228
I1129 13:30:44.834741 26105 layer_factory.hpp:77] Creating layer inception_4a/3x3
I1129 13:30:44.834753 26105 net.cpp:100] Creating Layer inception_4a/3x3
I1129 13:30:44.834765 26105 net.cpp:434] inception_4a/3x3 <- inception_4a/3x3_reduce/bn/sc
I1129 13:30:44.834784 26105 net.cpp:408] inception_4a/3x3 -> inception_4a/3x3
I1129 13:30:44.835552 26105 net.cpp:150] Setting up inception_4a/3x3
I1129 13:30:44.835569 26105 net.cpp:157] Top shape: 64 96 14 14 (1204224)
I1129 13:30:44.835575 26105 net.cpp:165] Memory required for data: 3892997124
I1129 13:30:44.835583 26105 layer_factory.hpp:77] Creating layer inception_4a/3x3/bn
I1129 13:30:44.835595 26105 net.cpp:100] Creating Layer inception_4a/3x3/bn
I1129 13:30:44.835603 26105 net.cpp:434] inception_4a/3x3/bn <- inception_4a/3x3
I1129 13:30:44.835611 26105 net.cpp:408] inception_4a/3x3/bn -> inception_4a/3x3/bn
I1129 13:30:44.835867 26105 net.cpp:150] Setting up inception_4a/3x3/bn
I1129 13:30:44.835880 26105 net.cpp:157] Top shape: 64 96 14 14 (1204224)
I1129 13:30:44.835886 26105 net.cpp:165] Memory required for data: 3897814020
I1129 13:30:44.835897 26105 layer_factory.hpp:77] Creating layer inception_4a/3x3/bn/sc
I1129 13:30:44.835906 26105 net.cpp:100] Creating Layer inception_4a/3x3/bn/sc
I1129 13:30:44.835913 26105 net.cpp:434] inception_4a/3x3/bn/sc <- inception_4a/3x3/bn
I1129 13:30:44.835927 26105 net.cpp:408] inception_4a/3x3/bn/sc -> inception_4a/3x3/bn/sc
I1129 13:30:44.835983 26105 layer_factory.hpp:77] Creating layer inception_4a/3x3/bn/sc
I1129 13:30:44.836129 26105 net.cpp:150] Setting up inception_4a/3x3/bn/sc
I1129 13:30:44.836141 26105 net.cpp:157] Top shape: 64 96 14 14 (1204224)
I1129 13:30:44.836148 26105 net.cpp:165] Memory required for data: 3902630916
I1129 13:30:44.836156 26105 layer_factory.hpp:77] Creating layer inception_4a/3x3/bn/sc/relu
I1129 13:30:44.836165 26105 net.cpp:100] Creating Layer inception_4a/3x3/bn/sc/relu
I1129 13:30:44.836172 26105 net.cpp:434] inception_4a/3x3/bn/sc/relu <- inception_4a/3x3/bn/sc
I1129 13:30:44.836184 26105 net.cpp:395] inception_4a/3x3/bn/sc/relu -> inception_4a/3x3/bn/sc (in-place)
I1129 13:30:44.836194 26105 net.cpp:150] Setting up inception_4a/3x3/bn/sc/relu
I1129 13:30:44.836200 26105 net.cpp:157] Top shape: 64 96 14 14 (1204224)
I1129 13:30:44.836206 26105 net.cpp:165] Memory required for data: 3907447812
I1129 13:30:44.836212 26105 layer_factory.hpp:77] Creating layer inception_4a/double3x3_reduce
I1129 13:30:44.836225 26105 net.cpp:100] Creating Layer inception_4a/double3x3_reduce
I1129 13:30:44.836232 26105 net.cpp:434] inception_4a/double3x3_reduce <- inception_3c/output_inception_3c/output_0_split_3
I1129 13:30:44.836242 26105 net.cpp:408] inception_4a/double3x3_reduce -> inception_4a/double3x3_reduce
I1129 13:30:44.837911 26105 net.cpp:150] Setting up inception_4a/double3x3_reduce
I1129 13:30:44.837934 26105 net.cpp:157] Top shape: 64 96 14 14 (1204224)
I1129 13:30:44.837939 26105 net.cpp:165] Memory required for data: 3912264708
I1129 13:30:44.837949 26105 layer_factory.hpp:77] Creating layer inception_4a/double3x3_reduce/bn
I1129 13:30:44.837961 26105 net.cpp:100] Creating Layer inception_4a/double3x3_reduce/bn
I1129 13:30:44.837970 26105 net.cpp:434] inception_4a/double3x3_reduce/bn <- inception_4a/double3x3_reduce
I1129 13:30:44.837978 26105 net.cpp:408] inception_4a/double3x3_reduce/bn -> inception_4a/double3x3_reduce/bn
I1129 13:30:44.838248 26105 net.cpp:150] Setting up inception_4a/double3x3_reduce/bn
I1129 13:30:44.838260 26105 net.cpp:157] Top shape: 64 96 14 14 (1204224)
I1129 13:30:44.838266 26105 net.cpp:165] Memory required for data: 3917081604
I1129 13:30:44.838279 26105 layer_factory.hpp:77] Creating layer inception_4a/double3x3_reduce/bn/sc
I1129 13:30:44.838289 26105 net.cpp:100] Creating Layer inception_4a/double3x3_reduce/bn/sc
I1129 13:30:44.838295 26105 net.cpp:434] inception_4a/double3x3_reduce/bn/sc <- inception_4a/double3x3_reduce/bn
I1129 13:30:44.838307 26105 net.cpp:408] inception_4a/double3x3_reduce/bn/sc -> inception_4a/double3x3_reduce/bn/sc
I1129 13:30:44.838363 26105 layer_factory.hpp:77] Creating layer inception_4a/double3x3_reduce/bn/sc
I1129 13:30:44.838513 26105 net.cpp:150] Setting up inception_4a/double3x3_reduce/bn/sc
I1129 13:30:44.838532 26105 net.cpp:157] Top shape: 64 96 14 14 (1204224)
I1129 13:30:44.838546 26105 net.cpp:165] Memory required for data: 3921898500
I1129 13:30:44.838557 26105 layer_factory.hpp:77] Creating layer inception_4a/double3x3_reduce/bn/sc/relu
I1129 13:30:44.838582 26105 net.cpp:100] Creating Layer inception_4a/double3x3_reduce/bn/sc/relu
I1129 13:30:44.838591 26105 net.cpp:434] inception_4a/double3x3_reduce/bn/sc/relu <- inception_4a/double3x3_reduce/bn/sc
I1129 13:30:44.838599 26105 net.cpp:395] inception_4a/double3x3_reduce/bn/sc/relu -> inception_4a/double3x3_reduce/bn/sc (in-place)
I1129 13:30:44.838610 26105 net.cpp:150] Setting up inception_4a/double3x3_reduce/bn/sc/relu
I1129 13:30:44.838618 26105 net.cpp:157] Top shape: 64 96 14 14 (1204224)
I1129 13:30:44.838624 26105 net.cpp:165] Memory required for data: 3926715396
I1129 13:30:44.838630 26105 layer_factory.hpp:77] Creating layer inception_4a/double3x3a
I1129 13:30:44.838644 26105 net.cpp:100] Creating Layer inception_4a/double3x3a
I1129 13:30:44.838651 26105 net.cpp:434] inception_4a/double3x3a <- inception_4a/double3x3_reduce/bn/sc
I1129 13:30:44.838660 26105 net.cpp:408] inception_4a/double3x3a -> inception_4a/double3x3a
I1129 13:30:44.840327 26105 net.cpp:150] Setting up inception_4a/double3x3a
I1129 13:30:44.840347 26105 net.cpp:157] Top shape: 64 128 14 14 (1605632)
I1129 13:30:44.840353 26105 net.cpp:165] Memory required for data: 3933137924
I1129 13:30:44.840361 26105 layer_factory.hpp:77] Creating layer inception_4a/double3x3a/bn
I1129 13:30:44.840371 26105 net.cpp:100] Creating Layer inception_4a/double3x3a/bn
I1129 13:30:44.840379 26105 net.cpp:434] inception_4a/double3x3a/bn <- inception_4a/double3x3a
I1129 13:30:44.840389 26105 net.cpp:408] inception_4a/double3x3a/bn -> inception_4a/double3x3a/bn
I1129 13:30:44.840637 26105 net.cpp:150] Setting up inception_4a/double3x3a/bn
I1129 13:30:44.840651 26105 net.cpp:157] Top shape: 64 128 14 14 (1605632)
I1129 13:30:44.840656 26105 net.cpp:165] Memory required for data: 3939560452
I1129 13:30:44.840667 26105 layer_factory.hpp:77] Creating layer inception_4a/double3x3a/bn/sc
I1129 13:30:44.840677 26105 net.cpp:100] Creating Layer inception_4a/double3x3a/bn/sc
I1129 13:30:44.840684 26105 net.cpp:434] inception_4a/double3x3a/bn/sc <- inception_4a/double3x3a/bn
I1129 13:30:44.840695 26105 net.cpp:408] inception_4a/double3x3a/bn/sc -> inception_4a/double3x3a/bn/sc
I1129 13:30:44.840749 26105 layer_factory.hpp:77] Creating layer inception_4a/double3x3a/bn/sc
I1129 13:30:44.840888 26105 net.cpp:150] Setting up inception_4a/double3x3a/bn/sc
I1129 13:30:44.840903 26105 net.cpp:157] Top shape: 64 128 14 14 (1605632)
I1129 13:30:44.840909 26105 net.cpp:165] Memory required for data: 3945982980
I1129 13:30:44.840919 26105 layer_factory.hpp:77] Creating layer inception_4a/double3x3a/bn/sc/relu
I1129 13:30:44.840929 26105 net.cpp:100] Creating Layer inception_4a/double3x3a/bn/sc/relu
I1129 13:30:44.840935 26105 net.cpp:434] inception_4a/double3x3a/bn/sc/relu <- inception_4a/double3x3a/bn/sc
I1129 13:30:44.840942 26105 net.cpp:395] inception_4a/double3x3a/bn/sc/relu -> inception_4a/double3x3a/bn/sc (in-place)
I1129 13:30:44.840952 26105 net.cpp:150] Setting up inception_4a/double3x3a/bn/sc/relu
I1129 13:30:44.840960 26105 net.cpp:157] Top shape: 64 128 14 14 (1605632)
I1129 13:30:44.840965 26105 net.cpp:165] Memory required for data: 3952405508
I1129 13:30:44.840971 26105 layer_factory.hpp:77] Creating layer inception_4a/double3x3b
I1129 13:30:44.840986 26105 net.cpp:100] Creating Layer inception_4a/double3x3b
I1129 13:30:44.840993 26105 net.cpp:434] inception_4a/double3x3b <- inception_4a/double3x3a/bn/sc
I1129 13:30:44.841004 26105 net.cpp:408] inception_4a/double3x3b -> inception_4a/double3x3b
I1129 13:30:44.843541 26105 net.cpp:150] Setting up inception_4a/double3x3b
I1129 13:30:44.843564 26105 net.cpp:157] Top shape: 64 128 14 14 (1605632)
I1129 13:30:44.843571 26105 net.cpp:165] Memory required for data: 3958828036
I1129 13:30:44.843580 26105 layer_factory.hpp:77] Creating layer inception_4a/double3x3b/bn
I1129 13:30:44.843598 26105 net.cpp:100] Creating Layer inception_4a/double3x3b/bn
I1129 13:30:44.843616 26105 net.cpp:434] inception_4a/double3x3b/bn <- inception_4a/double3x3b
I1129 13:30:44.843624 26105 net.cpp:408] inception_4a/double3x3b/bn -> inception_4a/double3x3b/bn
I1129 13:30:44.843879 26105 net.cpp:150] Setting up inception_4a/double3x3b/bn
I1129 13:30:44.843893 26105 net.cpp:157] Top shape: 64 128 14 14 (1605632)
I1129 13:30:44.843899 26105 net.cpp:165] Memory required for data: 3965250564
I1129 13:30:44.843912 26105 layer_factory.hpp:77] Creating layer inception_4a/double3x3b/bn/sc
I1129 13:30:44.843924 26105 net.cpp:100] Creating Layer inception_4a/double3x3b/bn/sc
I1129 13:30:44.843930 26105 net.cpp:434] inception_4a/double3x3b/bn/sc <- inception_4a/double3x3b/bn
I1129 13:30:44.843938 26105 net.cpp:408] inception_4a/double3x3b/bn/sc -> inception_4a/double3x3b/bn/sc
I1129 13:30:44.843992 26105 layer_factory.hpp:77] Creating layer inception_4a/double3x3b/bn/sc
I1129 13:30:44.844135 26105 net.cpp:150] Setting up inception_4a/double3x3b/bn/sc
I1129 13:30:44.844147 26105 net.cpp:157] Top shape: 64 128 14 14 (1605632)
I1129 13:30:44.844153 26105 net.cpp:165] Memory required for data: 3971673092
I1129 13:30:44.844162 26105 layer_factory.hpp:77] Creating layer inception_4a/double3x3b/bn/sc/relu
I1129 13:30:44.844174 26105 net.cpp:100] Creating Layer inception_4a/double3x3b/bn/sc/relu
I1129 13:30:44.844182 26105 net.cpp:434] inception_4a/double3x3b/bn/sc/relu <- inception_4a/double3x3b/bn/sc
I1129 13:30:44.844190 26105 net.cpp:395] inception_4a/double3x3b/bn/sc/relu -> inception_4a/double3x3b/bn/sc (in-place)
I1129 13:30:44.844199 26105 net.cpp:150] Setting up inception_4a/double3x3b/bn/sc/relu
I1129 13:30:44.844208 26105 net.cpp:157] Top shape: 64 128 14 14 (1605632)
I1129 13:30:44.844213 26105 net.cpp:165] Memory required for data: 3978095620
I1129 13:30:44.844219 26105 layer_factory.hpp:77] Creating layer inception_4a/pool
I1129 13:30:44.844230 26105 net.cpp:100] Creating Layer inception_4a/pool
I1129 13:30:44.844238 26105 net.cpp:434] inception_4a/pool <- inception_3c/output_inception_3c/output_0_split_4
I1129 13:30:44.844246 26105 net.cpp:408] inception_4a/pool -> inception_4a/pool
I1129 13:30:44.844286 26105 net.cpp:150] Setting up inception_4a/pool
I1129 13:30:44.844298 26105 net.cpp:157] Top shape: 64 576 14 14 (7225344)
I1129 13:30:44.844303 26105 net.cpp:165] Memory required for data: 4006996996
I1129 13:30:44.844310 26105 layer_factory.hpp:77] Creating layer inception_4a/pool_proj
I1129 13:30:44.844321 26105 net.cpp:100] Creating Layer inception_4a/pool_proj
I1129 13:30:44.844328 26105 net.cpp:434] inception_4a/pool_proj <- inception_4a/pool
I1129 13:30:44.844337 26105 net.cpp:408] inception_4a/pool_proj -> inception_4a/pool_proj
I1129 13:30:44.845263 26105 net.cpp:150] Setting up inception_4a/pool_proj
I1129 13:30:44.845276 26105 net.cpp:157] Top shape: 64 128 14 14 (1605632)
I1129 13:30:44.845283 26105 net.cpp:165] Memory required for data: 4013419524
I1129 13:30:44.845290 26105 layer_factory.hpp:77] Creating layer inception_4a/pool_proj/bn
I1129 13:30:44.845299 26105 net.cpp:100] Creating Layer inception_4a/pool_proj/bn
I1129 13:30:44.845306 26105 net.cpp:434] inception_4a/pool_proj/bn <- inception_4a/pool_proj
I1129 13:30:44.845317 26105 net.cpp:408] inception_4a/pool_proj/bn -> inception_4a/pool_proj/bn
I1129 13:30:44.845561 26105 net.cpp:150] Setting up inception_4a/pool_proj/bn
I1129 13:30:44.845574 26105 net.cpp:157] Top shape: 64 128 14 14 (1605632)
I1129 13:30:44.845580 26105 net.cpp:165] Memory required for data: 4019842052
I1129 13:30:44.845592 26105 layer_factory.hpp:77] Creating layer inception_4a/pool_proj/bn/sc
I1129 13:30:44.845603 26105 net.cpp:100] Creating Layer inception_4a/pool_proj/bn/sc
I1129 13:30:44.845610 26105 net.cpp:434] inception_4a/pool_proj/bn/sc <- inception_4a/pool_proj/bn
I1129 13:30:44.845619 26105 net.cpp:408] inception_4a/pool_proj/bn/sc -> inception_4a/pool_proj/bn/sc
I1129 13:30:44.845671 26105 layer_factory.hpp:77] Creating layer inception_4a/pool_proj/bn/sc
I1129 13:30:44.845821 26105 net.cpp:150] Setting up inception_4a/pool_proj/bn/sc
I1129 13:30:44.845841 26105 net.cpp:157] Top shape: 64 128 14 14 (1605632)
I1129 13:30:44.845847 26105 net.cpp:165] Memory required for data: 4026264580
I1129 13:30:44.845857 26105 layer_factory.hpp:77] Creating layer inception_4a/pool_proj/bn/sc/relu
I1129 13:30:44.845866 26105 net.cpp:100] Creating Layer inception_4a/pool_proj/bn/sc/relu
I1129 13:30:44.845873 26105 net.cpp:434] inception_4a/pool_proj/bn/sc/relu <- inception_4a/pool_proj/bn/sc
I1129 13:30:44.845883 26105 net.cpp:395] inception_4a/pool_proj/bn/sc/relu -> inception_4a/pool_proj/bn/sc (in-place)
I1129 13:30:44.845893 26105 net.cpp:150] Setting up inception_4a/pool_proj/bn/sc/relu
I1129 13:30:44.845901 26105 net.cpp:157] Top shape: 64 128 14 14 (1605632)
I1129 13:30:44.845906 26105 net.cpp:165] Memory required for data: 4032687108
I1129 13:30:44.845912 26105 layer_factory.hpp:77] Creating layer inception_4a/output
I1129 13:30:44.845921 26105 net.cpp:100] Creating Layer inception_4a/output
I1129 13:30:44.845927 26105 net.cpp:434] inception_4a/output <- inception_4a/1x1/bn/sc
I1129 13:30:44.845935 26105 net.cpp:434] inception_4a/output <- inception_4a/3x3/bn/sc
I1129 13:30:44.845942 26105 net.cpp:434] inception_4a/output <- inception_4a/double3x3b/bn/sc
I1129 13:30:44.845949 26105 net.cpp:434] inception_4a/output <- inception_4a/pool_proj/bn/sc
I1129 13:30:44.845959 26105 net.cpp:408] inception_4a/output -> inception_4a/output
I1129 13:30:44.845994 26105 net.cpp:150] Setting up inception_4a/output
I1129 13:30:44.846005 26105 net.cpp:157] Top shape: 64 576 14 14 (7225344)
I1129 13:30:44.846011 26105 net.cpp:165] Memory required for data: 4061588484
I1129 13:30:44.846017 26105 layer_factory.hpp:77] Creating layer inception_4a/output_inception_4a/output_0_split
I1129 13:30:44.846029 26105 net.cpp:100] Creating Layer inception_4a/output_inception_4a/output_0_split
I1129 13:30:44.846035 26105 net.cpp:434] inception_4a/output_inception_4a/output_0_split <- inception_4a/output
I1129 13:30:44.846045 26105 net.cpp:408] inception_4a/output_inception_4a/output_0_split -> inception_4a/output_inception_4a/output_0_split_0
I1129 13:30:44.846055 26105 net.cpp:408] inception_4a/output_inception_4a/output_0_split -> inception_4a/output_inception_4a/output_0_split_1
I1129 13:30:44.846079 26105 net.cpp:408] inception_4a/output_inception_4a/output_0_split -> inception_4a/output_inception_4a/output_0_split_2
I1129 13:30:44.846091 26105 net.cpp:408] inception_4a/output_inception_4a/output_0_split -> inception_4a/output_inception_4a/output_0_split_3
I1129 13:30:44.846166 26105 net.cpp:150] Setting up inception_4a/output_inception_4a/output_0_split
I1129 13:30:44.846177 26105 net.cpp:157] Top shape: 64 576 14 14 (7225344)
I1129 13:30:44.846187 26105 net.cpp:157] Top shape: 64 576 14 14 (7225344)
I1129 13:30:44.846195 26105 net.cpp:157] Top shape: 64 576 14 14 (7225344)
I1129 13:30:44.846202 26105 net.cpp:157] Top shape: 64 576 14 14 (7225344)
I1129 13:30:44.846209 26105 net.cpp:165] Memory required for data: 4177193988
I1129 13:30:44.846215 26105 layer_factory.hpp:77] Creating layer inception_4b/1x1
I1129 13:30:44.846233 26105 net.cpp:100] Creating Layer inception_4b/1x1
I1129 13:30:44.846241 26105 net.cpp:434] inception_4b/1x1 <- inception_4a/output_inception_4a/output_0_split_0
I1129 13:30:44.846251 26105 net.cpp:408] inception_4b/1x1 -> inception_4b/1x1
I1129 13:30:44.848433 26105 net.cpp:150] Setting up inception_4b/1x1
I1129 13:30:44.848456 26105 net.cpp:157] Top shape: 64 192 14 14 (2408448)
I1129 13:30:44.848464 26105 net.cpp:165] Memory required for data: 4186827780
I1129 13:30:44.848471 26105 layer_factory.hpp:77] Creating layer inception_4b/1x1/bn
I1129 13:30:44.848482 26105 net.cpp:100] Creating Layer inception_4b/1x1/bn
I1129 13:30:44.848489 26105 net.cpp:434] inception_4b/1x1/bn <- inception_4b/1x1
I1129 13:30:44.848498 26105 net.cpp:408] inception_4b/1x1/bn -> inception_4b/1x1/bn
I1129 13:30:44.848767 26105 net.cpp:150] Setting up inception_4b/1x1/bn
I1129 13:30:44.848788 26105 net.cpp:157] Top shape: 64 192 14 14 (2408448)
I1129 13:30:44.848803 26105 net.cpp:165] Memory required for data: 4196461572
I1129 13:30:44.848815 26105 layer_factory.hpp:77] Creating layer inception_4b/1x1/bn/sc
I1129 13:30:44.848824 26105 net.cpp:100] Creating Layer inception_4b/1x1/bn/sc
I1129 13:30:44.848831 26105 net.cpp:434] inception_4b/1x1/bn/sc <- inception_4b/1x1/bn
I1129 13:30:44.848845 26105 net.cpp:408] inception_4b/1x1/bn/sc -> inception_4b/1x1/bn/sc
I1129 13:30:44.848906 26105 layer_factory.hpp:77] Creating layer inception_4b/1x1/bn/sc
I1129 13:30:44.849053 26105 net.cpp:150] Setting up inception_4b/1x1/bn/sc
I1129 13:30:44.849066 26105 net.cpp:157] Top shape: 64 192 14 14 (2408448)
I1129 13:30:44.849071 26105 net.cpp:165] Memory required for data: 4206095364
I1129 13:30:44.849081 26105 layer_factory.hpp:77] Creating layer inception_4b/1x1/bn/sc/relu
I1129 13:30:44.849092 26105 net.cpp:100] Creating Layer inception_4b/1x1/bn/sc/relu
I1129 13:30:44.849100 26105 net.cpp:434] inception_4b/1x1/bn/sc/relu <- inception_4b/1x1/bn/sc
I1129 13:30:44.849108 26105 net.cpp:395] inception_4b/1x1/bn/sc/relu -> inception_4b/1x1/bn/sc (in-place)
I1129 13:30:44.849118 26105 net.cpp:150] Setting up inception_4b/1x1/bn/sc/relu
I1129 13:30:44.849126 26105 net.cpp:157] Top shape: 64 192 14 14 (2408448)
I1129 13:30:44.849133 26105 net.cpp:165] Memory required for data: 4215729156
I1129 13:30:44.849138 26105 layer_factory.hpp:77] Creating layer inception_4b/3x3_reduce
I1129 13:30:44.849153 26105 net.cpp:100] Creating Layer inception_4b/3x3_reduce
I1129 13:30:44.849159 26105 net.cpp:434] inception_4b/3x3_reduce <- inception_4a/output_inception_4a/output_0_split_1
I1129 13:30:44.849169 26105 net.cpp:408] inception_4b/3x3_reduce -> inception_4b/3x3_reduce
I1129 13:30:44.849931 26105 net.cpp:150] Setting up inception_4b/3x3_reduce
I1129 13:30:44.849946 26105 net.cpp:157] Top shape: 64 96 14 14 (1204224)
I1129 13:30:44.849951 26105 net.cpp:165] Memory required for data: 4220546052
I1129 13:30:44.849959 26105 layer_factory.hpp:77] Creating layer inception_4b/3x3_reduce/bn
I1129 13:30:44.849968 26105 net.cpp:100] Creating Layer inception_4b/3x3_reduce/bn
I1129 13:30:44.849975 26105 net.cpp:434] inception_4b/3x3_reduce/bn <- inception_4b/3x3_reduce
I1129 13:30:44.849987 26105 net.cpp:408] inception_4b/3x3_reduce/bn -> inception_4b/3x3_reduce/bn
I1129 13:30:44.850255 26105 net.cpp:150] Setting up inception_4b/3x3_reduce/bn
I1129 13:30:44.850268 26105 net.cpp:157] Top shape: 64 96 14 14 (1204224)
I1129 13:30:44.850275 26105 net.cpp:165] Memory required for data: 4225362948
I1129 13:30:44.850286 26105 layer_factory.hpp:77] Creating layer inception_4b/3x3_reduce/bn/sc
I1129 13:30:44.850294 26105 net.cpp:100] Creating Layer inception_4b/3x3_reduce/bn/sc
I1129 13:30:44.850301 26105 net.cpp:434] inception_4b/3x3_reduce/bn/sc <- inception_4b/3x3_reduce/bn
I1129 13:30:44.850309 26105 net.cpp:408] inception_4b/3x3_reduce/bn/sc -> inception_4b/3x3_reduce/bn/sc
I1129 13:30:44.850366 26105 layer_factory.hpp:77] Creating layer inception_4b/3x3_reduce/bn/sc
I1129 13:30:44.850517 26105 net.cpp:150] Setting up inception_4b/3x3_reduce/bn/sc
I1129 13:30:44.850528 26105 net.cpp:157] Top shape: 64 96 14 14 (1204224)
I1129 13:30:44.850534 26105 net.cpp:165] Memory required for data: 4230179844
I1129 13:30:44.850543 26105 layer_factory.hpp:77] Creating layer inception_4b/3x3_reduce/bn/sc/relu
I1129 13:30:44.850555 26105 net.cpp:100] Creating Layer inception_4b/3x3_reduce/bn/sc/relu
I1129 13:30:44.850563 26105 net.cpp:434] inception_4b/3x3_reduce/bn/sc/relu <- inception_4b/3x3_reduce/bn/sc
I1129 13:30:44.850570 26105 net.cpp:395] inception_4b/3x3_reduce/bn/sc/relu -> inception_4b/3x3_reduce/bn/sc (in-place)
I1129 13:30:44.850579 26105 net.cpp:150] Setting up inception_4b/3x3_reduce/bn/sc/relu
I1129 13:30:44.850587 26105 net.cpp:157] Top shape: 64 96 14 14 (1204224)
I1129 13:30:44.850592 26105 net.cpp:165] Memory required for data: 4234996740
I1129 13:30:44.850599 26105 layer_factory.hpp:77] Creating layer inception_4b/3x3
I1129 13:30:44.850620 26105 net.cpp:100] Creating Layer inception_4b/3x3
I1129 13:30:44.850626 26105 net.cpp:434] inception_4b/3x3 <- inception_4b/3x3_reduce/bn/sc
I1129 13:30:44.850643 26105 net.cpp:408] inception_4b/3x3 -> inception_4b/3x3
I1129 13:30:44.851932 26105 net.cpp:150] Setting up inception_4b/3x3
I1129 13:30:44.851948 26105 net.cpp:157] Top shape: 64 128 14 14 (1605632)
I1129 13:30:44.851955 26105 net.cpp:165] Memory required for data: 4241419268
I1129 13:30:44.851963 26105 layer_factory.hpp:77] Creating layer inception_4b/3x3/bn
I1129 13:30:44.851972 26105 net.cpp:100] Creating Layer inception_4b/3x3/bn
I1129 13:30:44.851979 26105 net.cpp:434] inception_4b/3x3/bn <- inception_4b/3x3
I1129 13:30:44.851989 26105 net.cpp:408] inception_4b/3x3/bn -> inception_4b/3x3/bn
I1129 13:30:44.852239 26105 net.cpp:150] Setting up inception_4b/3x3/bn
I1129 13:30:44.852252 26105 net.cpp:157] Top shape: 64 128 14 14 (1605632)
I1129 13:30:44.852258 26105 net.cpp:165] Memory required for data: 4247841796
I1129 13:30:44.852269 26105 layer_factory.hpp:77] Creating layer inception_4b/3x3/bn/sc
I1129 13:30:44.852278 26105 net.cpp:100] Creating Layer inception_4b/3x3/bn/sc
I1129 13:30:44.852285 26105 net.cpp:434] inception_4b/3x3/bn/sc <- inception_4b/3x3/bn
I1129 13:30:44.852294 26105 net.cpp:408] inception_4b/3x3/bn/sc -> inception_4b/3x3/bn/sc
I1129 13:30:44.852356 26105 layer_factory.hpp:77] Creating layer inception_4b/3x3/bn/sc
I1129 13:30:44.852495 26105 net.cpp:150] Setting up inception_4b/3x3/bn/sc
I1129 13:30:44.852507 26105 net.cpp:157] Top shape: 64 128 14 14 (1605632)
I1129 13:30:44.852512 26105 net.cpp:165] Memory required for data: 4254264324
I1129 13:30:44.852522 26105 layer_factory.hpp:77] Creating layer inception_4b/3x3/bn/sc/relu
I1129 13:30:44.852533 26105 net.cpp:100] Creating Layer inception_4b/3x3/bn/sc/relu
I1129 13:30:44.852540 26105 net.cpp:434] inception_4b/3x3/bn/sc/relu <- inception_4b/3x3/bn/sc
I1129 13:30:44.852548 26105 net.cpp:395] inception_4b/3x3/bn/sc/relu -> inception_4b/3x3/bn/sc (in-place)
I1129 13:30:44.852557 26105 net.cpp:150] Setting up inception_4b/3x3/bn/sc/relu
I1129 13:30:44.852566 26105 net.cpp:157] Top shape: 64 128 14 14 (1605632)
I1129 13:30:44.852571 26105 net.cpp:165] Memory required for data: 4260686852
I1129 13:30:44.852577 26105 layer_factory.hpp:77] Creating layer inception_4b/double3x3_reduce
I1129 13:30:44.852591 26105 net.cpp:100] Creating Layer inception_4b/double3x3_reduce
I1129 13:30:44.852597 26105 net.cpp:434] inception_4b/double3x3_reduce <- inception_4a/output_inception_4a/output_0_split_2
I1129 13:30:44.852607 26105 net.cpp:408] inception_4b/double3x3_reduce -> inception_4b/double3x3_reduce
I1129 13:30:44.853370 26105 net.cpp:150] Setting up inception_4b/double3x3_reduce
I1129 13:30:44.853384 26105 net.cpp:157] Top shape: 64 96 14 14 (1204224)
I1129 13:30:44.853390 26105 net.cpp:165] Memory required for data: 4265503748
I1129 13:30:44.853399 26105 layer_factory.hpp:77] Creating layer inception_4b/double3x3_reduce/bn
I1129 13:30:44.853409 26105 net.cpp:100] Creating Layer inception_4b/double3x3_reduce/bn
I1129 13:30:44.853415 26105 net.cpp:434] inception_4b/double3x3_reduce/bn <- inception_4b/double3x3_reduce
I1129 13:30:44.853423 26105 net.cpp:408] inception_4b/double3x3_reduce/bn -> inception_4b/double3x3_reduce/bn
I1129 13:30:44.853683 26105 net.cpp:150] Setting up inception_4b/double3x3_reduce/bn
I1129 13:30:44.853696 26105 net.cpp:157] Top shape: 64 96 14 14 (1204224)
I1129 13:30:44.853701 26105 net.cpp:165] Memory required for data: 4270320644
I1129 13:30:44.853713 26105 layer_factory.hpp:77] Creating layer inception_4b/double3x3_reduce/bn/sc
I1129 13:30:44.853723 26105 net.cpp:100] Creating Layer inception_4b/double3x3_reduce/bn/sc
I1129 13:30:44.853729 26105 net.cpp:434] inception_4b/double3x3_reduce/bn/sc <- inception_4b/double3x3_reduce/bn
I1129 13:30:44.853739 26105 net.cpp:408] inception_4b/double3x3_reduce/bn/sc -> inception_4b/double3x3_reduce/bn/sc
I1129 13:30:44.853796 26105 layer_factory.hpp:77] Creating layer inception_4b/double3x3_reduce/bn/sc
I1129 13:30:44.853956 26105 net.cpp:150] Setting up inception_4b/double3x3_reduce/bn/sc
I1129 13:30:44.853977 26105 net.cpp:157] Top shape: 64 96 14 14 (1204224)
I1129 13:30:44.853984 26105 net.cpp:165] Memory required for data: 4275137540
I1129 13:30:44.853993 26105 layer_factory.hpp:77] Creating layer inception_4b/double3x3_reduce/bn/sc/relu
I1129 13:30:44.854002 26105 net.cpp:100] Creating Layer inception_4b/double3x3_reduce/bn/sc/relu
I1129 13:30:44.854009 26105 net.cpp:434] inception_4b/double3x3_reduce/bn/sc/relu <- inception_4b/double3x3_reduce/bn/sc
I1129 13:30:44.854019 26105 net.cpp:395] inception_4b/double3x3_reduce/bn/sc/relu -> inception_4b/double3x3_reduce/bn/sc (in-place)
I1129 13:30:44.854030 26105 net.cpp:150] Setting up inception_4b/double3x3_reduce/bn/sc/relu
I1129 13:30:44.854038 26105 net.cpp:157] Top shape: 64 96 14 14 (1204224)
I1129 13:30:44.854043 26105 net.cpp:165] Memory required for data: 4279954436
I1129 13:30:44.854049 26105 layer_factory.hpp:77] Creating layer inception_4b/double3x3a
I1129 13:30:44.854064 26105 net.cpp:100] Creating Layer inception_4b/double3x3a
I1129 13:30:44.854071 26105 net.cpp:434] inception_4b/double3x3a <- inception_4b/double3x3_reduce/bn/sc
I1129 13:30:44.854079 26105 net.cpp:408] inception_4b/double3x3a -> inception_4b/double3x3a
I1129 13:30:44.856271 26105 net.cpp:150] Setting up inception_4b/double3x3a
I1129 13:30:44.856293 26105 net.cpp:157] Top shape: 64 128 14 14 (1605632)
I1129 13:30:44.856300 26105 net.cpp:165] Memory required for data: 4286376964
I1129 13:30:44.856309 26105 layer_factory.hpp:77] Creating layer inception_4b/double3x3a/bn
I1129 13:30:44.856319 26105 net.cpp:100] Creating Layer inception_4b/double3x3a/bn
I1129 13:30:44.856328 26105 net.cpp:434] inception_4b/double3x3a/bn <- inception_4b/double3x3a
I1129 13:30:44.856336 26105 net.cpp:408] inception_4b/double3x3a/bn -> inception_4b/double3x3a/bn
I1129 13:30:44.856602 26105 net.cpp:150] Setting up inception_4b/double3x3a/bn
I1129 13:30:44.856616 26105 net.cpp:157] Top shape: 64 128 14 14 (1605632)
I1129 13:30:44.856622 26105 net.cpp:165] Memory required for data: 4292799492
I1129 13:30:44.856634 26105 layer_factory.hpp:77] Creating layer inception_4b/double3x3a/bn/sc
I1129 13:30:44.856644 26105 net.cpp:100] Creating Layer inception_4b/double3x3a/bn/sc
I1129 13:30:44.856652 26105 net.cpp:434] inception_4b/double3x3a/bn/sc <- inception_4b/double3x3a/bn
I1129 13:30:44.856659 26105 net.cpp:408] inception_4b/double3x3a/bn/sc -> inception_4b/double3x3a/bn/sc
I1129 13:30:44.856719 26105 layer_factory.hpp:77] Creating layer inception_4b/double3x3a/bn/sc
I1129 13:30:44.856859 26105 net.cpp:150] Setting up inception_4b/double3x3a/bn/sc
I1129 13:30:44.856871 26105 net.cpp:157] Top shape: 64 128 14 14 (1605632)
I1129 13:30:44.856878 26105 net.cpp:165] Memory required for data: 4299222020
I1129 13:30:44.856887 26105 layer_factory.hpp:77] Creating layer inception_4b/double3x3a/bn/sc/relu
I1129 13:30:44.856899 26105 net.cpp:100] Creating Layer inception_4b/double3x3a/bn/sc/relu
I1129 13:30:44.856906 26105 net.cpp:434] inception_4b/double3x3a/bn/sc/relu <- inception_4b/double3x3a/bn/sc
I1129 13:30:44.856914 26105 net.cpp:395] inception_4b/double3x3a/bn/sc/relu -> inception_4b/double3x3a/bn/sc (in-place)
I1129 13:30:44.856923 26105 net.cpp:150] Setting up inception_4b/double3x3a/bn/sc/relu
I1129 13:30:44.856931 26105 net.cpp:157] Top shape: 64 128 14 14 (1605632)
I1129 13:30:44.856936 26105 net.cpp:165] Memory required for data: 4305644548
I1129 13:30:44.856942 26105 layer_factory.hpp:77] Creating layer inception_4b/double3x3b
I1129 13:30:44.856956 26105 net.cpp:100] Creating Layer inception_4b/double3x3b
I1129 13:30:44.856963 26105 net.cpp:434] inception_4b/double3x3b <- inception_4b/double3x3a/bn/sc
I1129 13:30:44.856972 26105 net.cpp:408] inception_4b/double3x3b -> inception_4b/double3x3b
I1129 13:30:44.858603 26105 net.cpp:150] Setting up inception_4b/double3x3b
I1129 13:30:44.858618 26105 net.cpp:157] Top shape: 64 128 14 14 (1605632)
I1129 13:30:44.858623 26105 net.cpp:165] Memory required for data: 4312067076
I1129 13:30:44.858641 26105 layer_factory.hpp:77] Creating layer inception_4b/double3x3b/bn
I1129 13:30:44.858661 26105 net.cpp:100] Creating Layer inception_4b/double3x3b/bn
I1129 13:30:44.858669 26105 net.cpp:434] inception_4b/double3x3b/bn <- inception_4b/double3x3b
I1129 13:30:44.858677 26105 net.cpp:408] inception_4b/double3x3b/bn -> inception_4b/double3x3b/bn
I1129 13:30:44.858939 26105 net.cpp:150] Setting up inception_4b/double3x3b/bn
I1129 13:30:44.858954 26105 net.cpp:157] Top shape: 64 128 14 14 (1605632)
I1129 13:30:44.858960 26105 net.cpp:165] Memory required for data: 4318489604
I1129 13:30:44.858973 26105 layer_factory.hpp:77] Creating layer inception_4b/double3x3b/bn/sc
I1129 13:30:44.858983 26105 net.cpp:100] Creating Layer inception_4b/double3x3b/bn/sc
I1129 13:30:44.858989 26105 net.cpp:434] inception_4b/double3x3b/bn/sc <- inception_4b/double3x3b/bn
I1129 13:30:44.858997 26105 net.cpp:408] inception_4b/double3x3b/bn/sc -> inception_4b/double3x3b/bn/sc
I1129 13:30:44.859055 26105 layer_factory.hpp:77] Creating layer inception_4b/double3x3b/bn/sc
I1129 13:30:44.859190 26105 net.cpp:150] Setting up inception_4b/double3x3b/bn/sc
I1129 13:30:44.859202 26105 net.cpp:157] Top shape: 64 128 14 14 (1605632)
I1129 13:30:44.859208 26105 net.cpp:165] Memory required for data: 4324912132
I1129 13:30:44.859218 26105 layer_factory.hpp:77] Creating layer inception_4b/double3x3b/bn/sc/relu
I1129 13:30:44.859230 26105 net.cpp:100] Creating Layer inception_4b/double3x3b/bn/sc/relu
I1129 13:30:44.859236 26105 net.cpp:434] inception_4b/double3x3b/bn/sc/relu <- inception_4b/double3x3b/bn/sc
I1129 13:30:44.859244 26105 net.cpp:395] inception_4b/double3x3b/bn/sc/relu -> inception_4b/double3x3b/bn/sc (in-place)
I1129 13:30:44.859254 26105 net.cpp:150] Setting up inception_4b/double3x3b/bn/sc/relu
I1129 13:30:44.859261 26105 net.cpp:157] Top shape: 64 128 14 14 (1605632)
I1129 13:30:44.859267 26105 net.cpp:165] Memory required for data: 4331334660
I1129 13:30:44.859273 26105 layer_factory.hpp:77] Creating layer inception_4b/pool
I1129 13:30:44.859282 26105 net.cpp:100] Creating Layer inception_4b/pool
I1129 13:30:44.859289 26105 net.cpp:434] inception_4b/pool <- inception_4a/output_inception_4a/output_0_split_3
I1129 13:30:44.859302 26105 net.cpp:408] inception_4b/pool -> inception_4b/pool
I1129 13:30:44.859335 26105 net.cpp:150] Setting up inception_4b/pool
I1129 13:30:44.859350 26105 net.cpp:157] Top shape: 64 576 14 14 (7225344)
I1129 13:30:44.859356 26105 net.cpp:165] Memory required for data: 4360236036
I1129 13:30:44.859362 26105 layer_factory.hpp:77] Creating layer inception_4b/pool_proj
I1129 13:30:44.859375 26105 net.cpp:100] Creating Layer inception_4b/pool_proj
I1129 13:30:44.859381 26105 net.cpp:434] inception_4b/pool_proj <- inception_4b/pool
I1129 13:30:44.859392 26105 net.cpp:408] inception_4b/pool_proj -> inception_4b/pool_proj
I1129 13:30:44.860334 26105 net.cpp:150] Setting up inception_4b/pool_proj
I1129 13:30:44.860348 26105 net.cpp:157] Top shape: 64 128 14 14 (1605632)
I1129 13:30:44.860354 26105 net.cpp:165] Memory required for data: 4366658564
I1129 13:30:44.860363 26105 layer_factory.hpp:77] Creating layer inception_4b/pool_proj/bn
I1129 13:30:44.860374 26105 net.cpp:100] Creating Layer inception_4b/pool_proj/bn
I1129 13:30:44.860381 26105 net.cpp:434] inception_4b/pool_proj/bn <- inception_4b/pool_proj
I1129 13:30:44.860390 26105 net.cpp:408] inception_4b/pool_proj/bn -> inception_4b/pool_proj/bn
I1129 13:30:44.860647 26105 net.cpp:150] Setting up inception_4b/pool_proj/bn
I1129 13:30:44.860661 26105 net.cpp:157] Top shape: 64 128 14 14 (1605632)
I1129 13:30:44.860667 26105 net.cpp:165] Memory required for data: 4373081092
I1129 13:30:44.860678 26105 layer_factory.hpp:77] Creating layer inception_4b/pool_proj/bn/sc
I1129 13:30:44.860688 26105 net.cpp:100] Creating Layer inception_4b/pool_proj/bn/sc
I1129 13:30:44.860695 26105 net.cpp:434] inception_4b/pool_proj/bn/sc <- inception_4b/pool_proj/bn
I1129 13:30:44.860703 26105 net.cpp:408] inception_4b/pool_proj/bn/sc -> inception_4b/pool_proj/bn/sc
I1129 13:30:44.860762 26105 layer_factory.hpp:77] Creating layer inception_4b/pool_proj/bn/sc
I1129 13:30:44.860924 26105 net.cpp:150] Setting up inception_4b/pool_proj/bn/sc
I1129 13:30:44.860936 26105 net.cpp:157] Top shape: 64 128 14 14 (1605632)
I1129 13:30:44.860942 26105 net.cpp:165] Memory required for data: 4379503620
I1129 13:30:44.860952 26105 layer_factory.hpp:77] Creating layer inception_4b/pool_proj/bn/sc/relu
I1129 13:30:44.860961 26105 net.cpp:100] Creating Layer inception_4b/pool_proj/bn/sc/relu
I1129 13:30:44.860968 26105 net.cpp:434] inception_4b/pool_proj/bn/sc/relu <- inception_4b/pool_proj/bn/sc
I1129 13:30:44.860978 26105 net.cpp:395] inception_4b/pool_proj/bn/sc/relu -> inception_4b/pool_proj/bn/sc (in-place)
I1129 13:30:44.860990 26105 net.cpp:150] Setting up inception_4b/pool_proj/bn/sc/relu
I1129 13:30:44.860996 26105 net.cpp:157] Top shape: 64 128 14 14 (1605632)
I1129 13:30:44.861002 26105 net.cpp:165] Memory required for data: 4385926148
I1129 13:30:44.861008 26105 layer_factory.hpp:77] Creating layer inception_4b/output
I1129 13:30:44.861017 26105 net.cpp:100] Creating Layer inception_4b/output
I1129 13:30:44.861023 26105 net.cpp:434] inception_4b/output <- inception_4b/1x1/bn/sc
I1129 13:30:44.861032 26105 net.cpp:434] inception_4b/output <- inception_4b/3x3/bn/sc
I1129 13:30:44.861038 26105 net.cpp:434] inception_4b/output <- inception_4b/double3x3b/bn/sc
I1129 13:30:44.861045 26105 net.cpp:434] inception_4b/output <- inception_4b/pool_proj/bn/sc
I1129 13:30:44.861053 26105 net.cpp:408] inception_4b/output -> inception_4b/output
I1129 13:30:44.861090 26105 net.cpp:150] Setting up inception_4b/output
I1129 13:30:44.861101 26105 net.cpp:157] Top shape: 64 576 14 14 (7225344)
I1129 13:30:44.861107 26105 net.cpp:165] Memory required for data: 4414827524
I1129 13:30:44.861112 26105 layer_factory.hpp:77] Creating layer inception_4b/output_inception_4b/output_0_split
I1129 13:30:44.861121 26105 net.cpp:100] Creating Layer inception_4b/output_inception_4b/output_0_split
I1129 13:30:44.861129 26105 net.cpp:434] inception_4b/output_inception_4b/output_0_split <- inception_4b/output
I1129 13:30:44.861136 26105 net.cpp:408] inception_4b/output_inception_4b/output_0_split -> inception_4b/output_inception_4b/output_0_split_0
I1129 13:30:44.861146 26105 net.cpp:408] inception_4b/output_inception_4b/output_0_split -> inception_4b/output_inception_4b/output_0_split_1
I1129 13:30:44.861156 26105 net.cpp:408] inception_4b/output_inception_4b/output_0_split -> inception_4b/output_inception_4b/output_0_split_2
I1129 13:30:44.861166 26105 net.cpp:408] inception_4b/output_inception_4b/output_0_split -> inception_4b/output_inception_4b/output_0_split_3
I1129 13:30:44.861239 26105 net.cpp:150] Setting up inception_4b/output_inception_4b/output_0_split
I1129 13:30:44.861250 26105 net.cpp:157] Top shape: 64 576 14 14 (7225344)
I1129 13:30:44.861415 26105 net.cpp:157] Top shape: 64 576 14 14 (7225344)
I1129 13:30:44.861426 26105 net.cpp:157] Top shape: 64 576 14 14 (7225344)
I1129 13:30:44.861433 26105 net.cpp:157] Top shape: 64 576 14 14 (7225344)
I1129 13:30:44.861439 26105 net.cpp:165] Memory required for data: 4530433028
I1129 13:30:44.861445 26105 layer_factory.hpp:77] Creating layer inception_4c/1x1
I1129 13:30:44.861461 26105 net.cpp:100] Creating Layer inception_4c/1x1
I1129 13:30:44.861469 26105 net.cpp:434] inception_4c/1x1 <- inception_4b/output_inception_4b/output_0_split_0
I1129 13:30:44.861479 26105 net.cpp:408] inception_4c/1x1 -> inception_4c/1x1
I1129 13:30:44.863649 26105 net.cpp:150] Setting up inception_4c/1x1
I1129 13:30:44.863672 26105 net.cpp:157] Top shape: 64 160 14 14 (2007040)
I1129 13:30:44.863679 26105 net.cpp:165] Memory required for data: 4538461188
I1129 13:30:44.863688 26105 layer_factory.hpp:77] Creating layer inception_4c/1x1/bn
I1129 13:30:44.863698 26105 net.cpp:100] Creating Layer inception_4c/1x1/bn
I1129 13:30:44.863706 26105 net.cpp:434] inception_4c/1x1/bn <- inception_4c/1x1
I1129 13:30:44.863718 26105 net.cpp:408] inception_4c/1x1/bn -> inception_4c/1x1/bn
I1129 13:30:44.863989 26105 net.cpp:150] Setting up inception_4c/1x1/bn
I1129 13:30:44.864008 26105 net.cpp:157] Top shape: 64 160 14 14 (2007040)
I1129 13:30:44.864025 26105 net.cpp:165] Memory required for data: 4546489348
I1129 13:30:44.864045 26105 layer_factory.hpp:77] Creating layer inception_4c/1x1/bn/sc
I1129 13:30:44.864055 26105 net.cpp:100] Creating Layer inception_4c/1x1/bn/sc
I1129 13:30:44.864063 26105 net.cpp:434] inception_4c/1x1/bn/sc <- inception_4c/1x1/bn
I1129 13:30:44.864071 26105 net.cpp:408] inception_4c/1x1/bn/sc -> inception_4c/1x1/bn/sc
I1129 13:30:44.864132 26105 layer_factory.hpp:77] Creating layer inception_4c/1x1/bn/sc
I1129 13:30:44.864284 26105 net.cpp:150] Setting up inception_4c/1x1/bn/sc
I1129 13:30:44.864297 26105 net.cpp:157] Top shape: 64 160 14 14 (2007040)
I1129 13:30:44.864303 26105 net.cpp:165] Memory required for data: 4554517508
I1129 13:30:44.864313 26105 layer_factory.hpp:77] Creating layer inception_4c/1x1/bn/sc/relu
I1129 13:30:44.864326 26105 net.cpp:100] Creating Layer inception_4c/1x1/bn/sc/relu
I1129 13:30:44.864332 26105 net.cpp:434] inception_4c/1x1/bn/sc/relu <- inception_4c/1x1/bn/sc
I1129 13:30:44.864341 26105 net.cpp:395] inception_4c/1x1/bn/sc/relu -> inception_4c/1x1/bn/sc (in-place)
I1129 13:30:44.864351 26105 net.cpp:150] Setting up inception_4c/1x1/bn/sc/relu
I1129 13:30:44.864358 26105 net.cpp:157] Top shape: 64 160 14 14 (2007040)
I1129 13:30:44.864364 26105 net.cpp:165] Memory required for data: 4562545668
I1129 13:30:44.864369 26105 layer_factory.hpp:77] Creating layer inception_4c/3x3_reduce
I1129 13:30:44.864384 26105 net.cpp:100] Creating Layer inception_4c/3x3_reduce
I1129 13:30:44.864392 26105 net.cpp:434] inception_4c/3x3_reduce <- inception_4b/output_inception_4b/output_0_split_1
I1129 13:30:44.864400 26105 net.cpp:408] inception_4c/3x3_reduce -> inception_4c/3x3_reduce
I1129 13:30:44.865342 26105 net.cpp:150] Setting up inception_4c/3x3_reduce
I1129 13:30:44.865357 26105 net.cpp:157] Top shape: 64 128 14 14 (1605632)
I1129 13:30:44.865365 26105 net.cpp:165] Memory required for data: 4568968196
I1129 13:30:44.865372 26105 layer_factory.hpp:77] Creating layer inception_4c/3x3_reduce/bn
I1129 13:30:44.865382 26105 net.cpp:100] Creating Layer inception_4c/3x3_reduce/bn
I1129 13:30:44.865391 26105 net.cpp:434] inception_4c/3x3_reduce/bn <- inception_4c/3x3_reduce
I1129 13:30:44.865398 26105 net.cpp:408] inception_4c/3x3_reduce/bn -> inception_4c/3x3_reduce/bn
I1129 13:30:44.865653 26105 net.cpp:150] Setting up inception_4c/3x3_reduce/bn
I1129 13:30:44.865664 26105 net.cpp:157] Top shape: 64 128 14 14 (1605632)
I1129 13:30:44.865670 26105 net.cpp:165] Memory required for data: 4575390724
I1129 13:30:44.865682 26105 layer_factory.hpp:77] Creating layer inception_4c/3x3_reduce/bn/sc
I1129 13:30:44.865691 26105 net.cpp:100] Creating Layer inception_4c/3x3_reduce/bn/sc
I1129 13:30:44.865698 26105 net.cpp:434] inception_4c/3x3_reduce/bn/sc <- inception_4c/3x3_reduce/bn
I1129 13:30:44.865707 26105 net.cpp:408] inception_4c/3x3_reduce/bn/sc -> inception_4c/3x3_reduce/bn/sc
I1129 13:30:44.865763 26105 layer_factory.hpp:77] Creating layer inception_4c/3x3_reduce/bn/sc
I1129 13:30:44.865902 26105 net.cpp:150] Setting up inception_4c/3x3_reduce/bn/sc
I1129 13:30:44.865914 26105 net.cpp:157] Top shape: 64 128 14 14 (1605632)
I1129 13:30:44.865921 26105 net.cpp:165] Memory required for data: 4581813252
I1129 13:30:44.865929 26105 layer_factory.hpp:77] Creating layer inception_4c/3x3_reduce/bn/sc/relu
I1129 13:30:44.865938 26105 net.cpp:100] Creating Layer inception_4c/3x3_reduce/bn/sc/relu
I1129 13:30:44.865945 26105 net.cpp:434] inception_4c/3x3_reduce/bn/sc/relu <- inception_4c/3x3_reduce/bn/sc
I1129 13:30:44.865957 26105 net.cpp:395] inception_4c/3x3_reduce/bn/sc/relu -> inception_4c/3x3_reduce/bn/sc (in-place)
I1129 13:30:44.865967 26105 net.cpp:150] Setting up inception_4c/3x3_reduce/bn/sc/relu
I1129 13:30:44.865974 26105 net.cpp:157] Top shape: 64 128 14 14 (1605632)
I1129 13:30:44.865979 26105 net.cpp:165] Memory required for data: 4588235780
I1129 13:30:44.865985 26105 layer_factory.hpp:77] Creating layer inception_4c/3x3
I1129 13:30:44.866006 26105 net.cpp:100] Creating Layer inception_4c/3x3
I1129 13:30:44.866020 26105 net.cpp:434] inception_4c/3x3 <- inception_4c/3x3_reduce/bn/sc
I1129 13:30:44.866030 26105 net.cpp:408] inception_4c/3x3 -> inception_4c/3x3
I1129 13:30:44.868932 26105 net.cpp:150] Setting up inception_4c/3x3
I1129 13:30:44.868955 26105 net.cpp:157] Top shape: 64 160 14 14 (2007040)
I1129 13:30:44.868963 26105 net.cpp:165] Memory required for data: 4596263940
I1129 13:30:44.868971 26105 layer_factory.hpp:77] Creating layer inception_4c/3x3/bn
I1129 13:30:44.868983 26105 net.cpp:100] Creating Layer inception_4c/3x3/bn
I1129 13:30:44.868989 26105 net.cpp:434] inception_4c/3x3/bn <- inception_4c/3x3
…
I1129 13:30:45.253129 26105 net.cpp:395] loss2/conv/bn/sc/relu -> loss2/conv/bn/sc (in-place)
I1129 13:30:45.253139 26105 net.cpp:150] Setting up loss2/conv/bn/sc/relu
I1129 13:30:45.253145 26105 net.cpp:157] Top shape: 16 128 2 2 (8192)
I1129 13:30:45.253151 26105 net.cpp:165] Memory required for data: 1371156108
I1129 13:30:45.253157 26105 layer_factory.hpp:77] Creating layer loss2/fc
I1129 13:30:45.253170 26105 net.cpp:100] Creating Layer loss2/fc
I1129 13:30:45.253178 26105 net.cpp:434] loss2/fc <- loss2/conv/bn/sc
I1129 13:30:45.253186 26105 net.cpp:408] loss2/fc -> loss2/fc
I1129 13:30:45.259620 26105 net.cpp:150] Setting up loss2/fc
I1129 13:30:45.259646 26105 net.cpp:157] Top shape: 16 1024 (16384)
I1129 13:30:45.259652 26105 net.cpp:165] Memory required for data: 1371221644
I1129 13:30:45.259661 26105 layer_factory.hpp:77] Creating layer loss2/fc/bn
I1129 13:30:45.259675 26105 net.cpp:100] Creating Layer loss2/fc/bn
I1129 13:30:45.259682 26105 net.cpp:434] loss2/fc/bn <- loss2/fc
I1129 13:30:45.259691 26105 net.cpp:408] loss2/fc/bn -> loss2/fc/bn
I1129 13:30:45.259986 26105 net.cpp:150] Setting up loss2/fc/bn
I1129 13:30:45.260000 26105 net.cpp:157] Top shape: 16 1024 (16384)
I1129 13:30:45.260006 26105 net.cpp:165] Memory required for data: 1371287180
I1129 13:30:45.260018 26105 layer_factory.hpp:77] Creating layer loss2/fc/bn/sc
I1129 13:30:45.260028 26105 net.cpp:100] Creating Layer loss2/fc/bn/sc
I1129 13:30:45.260035 26105 net.cpp:434] loss2/fc/bn/sc <- loss2/fc/bn
I1129 13:30:45.260045 26105 net.cpp:408] loss2/fc/bn/sc -> loss2/fc/bn/sc
I1129 13:30:45.260109 26105 layer_factory.hpp:77] Creating layer loss2/fc/bn/sc
I1129 13:30:45.260275 26105 net.cpp:150] Setting up loss2/fc/bn/sc
I1129 13:30:45.260288 26105 net.cpp:157] Top shape: 16 1024 (16384)
I1129 13:30:45.260294 26105 net.cpp:165] Memory required for data: 1371352716
I1129 13:30:45.260309 26105 layer_factory.hpp:77] Creating layer loss2/fc/bn/sc/relu
I1129 13:30:45.260329 26105 net.cpp:100] Creating Layer loss2/fc/bn/sc/relu
I1129 13:30:45.260336 26105 net.cpp:434] loss2/fc/bn/sc/relu <- loss2/fc/bn/sc
I1129 13:30:45.260346 26105 net.cpp:395] loss2/fc/bn/sc/relu -> loss2/fc/bn/sc (in-place)
I1129 13:30:45.260356 26105 net.cpp:150] Setting up loss2/fc/bn/sc/relu
I1129 13:30:45.260365 26105 net.cpp:157] Top shape: 16 1024 (16384)
I1129 13:30:45.260370 26105 net.cpp:165] Memory required for data: 1371418252
I1129 13:30:45.260376 26105 layer_factory.hpp:77] Creating layer loss2/classifier
I1129 13:30:45.260386 26105 net.cpp:100] Creating Layer loss2/classifier
I1129 13:30:45.260392 26105 net.cpp:434] loss2/classifier <- loss2/fc/bn/sc
I1129 13:30:45.260403 26105 net.cpp:408] loss2/classifier -> loss2/classifier
I1129 13:30:45.272841 26105 net.cpp:150] Setting up loss2/classifier
I1129 13:30:45.272868 26105 net.cpp:157] Top shape: 16 1000 (16000)
I1129 13:30:45.272876 26105 net.cpp:165] Memory required for data: 1371482252
I1129 13:30:45.272886 26105 layer_factory.hpp:77] Creating layer loss2/classifier_loss2/classifier_0_split
I1129 13:30:45.272899 26105 net.cpp:100] Creating Layer loss2/classifier_loss2/classifier_0_split
I1129 13:30:45.272907 26105 net.cpp:434] loss2/classifier_loss2/classifier_0_split <- loss2/classifier
I1129 13:30:45.272917 26105 net.cpp:408] loss2/classifier_loss2/classifier_0_split -> loss2/classifier_loss2/classifier_0_split_0
I1129 13:30:45.272931 26105 net.cpp:408] loss2/classifier_loss2/classifier_0_split -> loss2/classifier_loss2/classifier_0_split_1
I1129 13:30:45.272989 26105 net.cpp:150] Setting up loss2/classifier_loss2/classifier_0_split
I1129 13:30:45.273001 26105 net.cpp:157] Top shape: 16 1000 (16000)
I1129 13:30:45.273010 26105 net.cpp:157] Top shape: 16 1000 (16000)
I1129 13:30:45.273015 26105 net.cpp:165] Memory required for data: 1371610252
I1129 13:30:45.273021 26105 layer_factory.hpp:77] Creating layer loss2/loss
I1129 13:30:45.273036 26105 net.cpp:100] Creating Layer loss2/loss
I1129 13:30:45.273042 26105 net.cpp:434] loss2/loss <- loss2/classifier_loss2/classifier_0_split_0
I1129 13:30:45.273051 26105 net.cpp:434] loss2/loss <- label_data_1_split_3
I1129 13:30:45.273059 26105 net.cpp:408] loss2/loss -> loss2/loss
I1129 13:30:45.273108 26105 layer_factory.hpp:77] Creating layer loss2/loss
I1129 13:30:45.273278 26105 net.cpp:150] Setting up loss2/loss
I1129 13:30:45.273298 26105 net.cpp:157] Top shape: (1)
I1129 13:30:45.273304 26105 net.cpp:160]     with loss weight 0.3
I1129 13:30:45.273327 26105 net.cpp:165] Memory required for data: 1371610256
I1129 13:30:45.273334 26105 layer_factory.hpp:77] Creating layer loss2/prob
I1129 13:30:45.273344 26105 net.cpp:100] Creating Layer loss2/prob
I1129 13:30:45.273351 26105 net.cpp:434] loss2/prob <- loss2/classifier_loss2/classifier_0_split_1
I1129 13:30:45.273360 26105 net.cpp:408] loss2/prob -> loss2/prob
I1129 13:30:45.273460 26105 net.cpp:150] Setting up loss2/prob
I1129 13:30:45.273473 26105 net.cpp:157] Top shape: 16 1000 (16000)
I1129 13:30:45.273479 26105 net.cpp:165] Memory required for data: 1371674256
I1129 13:30:45.273484 26105 layer_factory.hpp:77] Creating layer loss2/prob_loss2/prob_0_split
I1129 13:30:45.273494 26105 net.cpp:100] Creating Layer loss2/prob_loss2/prob_0_split
I1129 13:30:45.273500 26105 net.cpp:434] loss2/prob_loss2/prob_0_split <- loss2/prob
I1129 13:30:45.273509 26105 net.cpp:408] loss2/prob_loss2/prob_0_split -> loss2/prob_loss2/prob_0_split_0
I1129 13:30:45.273519 26105 net.cpp:408] loss2/prob_loss2/prob_0_split -> loss2/prob_loss2/prob_0_split_1
I1129 13:30:45.273572 26105 net.cpp:150] Setting up loss2/prob_loss2/prob_0_split
I1129 13:30:45.273583 26105 net.cpp:157] Top shape: 16 1000 (16000)
I1129 13:30:45.273591 26105 net.cpp:157] Top shape: 16 1000 (16000)
I1129 13:30:45.273597 26105 net.cpp:165] Memory required for data: 1371802256
I1129 13:30:45.273602 26105 layer_factory.hpp:77] Creating layer loss2/top-1
I1129 13:30:45.273617 26105 net.cpp:100] Creating Layer loss2/top-1
I1129 13:30:45.273629 26105 net.cpp:434] loss2/top-1 <- loss2/prob_loss2/prob_0_split_0
I1129 13:30:45.273646 26105 net.cpp:434] loss2/top-1 <- label_data_1_split_4
…
I1129 13:30:45.273746 26105 net.cpp:150] Setting up loss2/top-5
I1129 13:30:45.273754 26105 net.cpp:157] Top shape: (1)
I1129 13:30:45.273759 26105 net.cpp:165] Memory required for data: 1371802264
I1129 13:30:45.273766 26105 layer_factory.hpp:77] Creating layer inception_5a/1x1
I1129 13:30:45.273780 26105 net.cpp:100] Creating Layer inception_5a/1x1
I1129 13:30:45.273788 26105 net.cpp:434] inception_5a/1x1 <- inception_4e/output_inception_4e/output_0_split_1
I1129 13:30:45.273798 26105 net.cpp:408] inception_5a/1x1 -> inception_5a/1x1
I1129 13:30:45.278575 26105 net.cpp:150] Setting up inception_5a/1x1
I1129 13:30:45.278599 26105 net.cpp:157] Top shape: 16 352 7 7 (275968)
I1129 13:30:45.278604 26105 net.cpp:165] Memory required for data: 1372906136
I1129 13:30:45.278614 26105 layer_factory.hpp:77] Creating layer inception_5a/1x1/bn
I1129 13:30:45.278625 26105 net.cpp:100] Creating Layer inception_5a/1x1/bn
I1129 13:30:45.278632 26105 net.cpp:434] inception_5a/1x1/bn <- inception_5a/1x1
I1129 13:30:45.278645 26105 net.cpp:408] inception_5a/1x1/bn -> inception_5a/1x1/bn
I1129 13:30:45.278966 26105 net.cpp:150] Setting up inception_5a/1x1/bn
I1129 13:30:45.278982 26105 net.cpp:157] Top shape: 16 352 7 7 (275968)
I1129 13:30:45.278988 26105 net.cpp:165] Memory required for data: 1374010008
I1129 13:30:45.279000 26105 layer_factory.hpp:77] Creating layer inception_5a/1x1/bn/sc
I1129 13:30:45.279011 26105 net.cpp:100] Creating Layer inception_5a/1x1/bn/sc
I1129 13:30:45.279018 26105 net.cpp:434] inception_5a/1x1/bn/sc <- inception_5a/1x1/bn
I1129 13:30:45.279027 26105 net.cpp:408] inception_5a/1x1/bn/sc -> inception_5a/1x1/bn/sc
I1129 13:30:45.279105 26105 layer_factory.hpp:77] Creating layer inception_5a/1x1/bn/sc
I1129 13:30:45.279281 26105 net.cpp:150] Setting up inception_5a/1x1/bn/sc
I1129 13:30:45.279295 26105 net.cpp:157] Top shape: 16 352 7 7 (275968)
I1129 13:30:45.279301 26105 net.cpp:165] Memory required for data: 1375113880
I1129 13:30:45.279311 26105 layer_factory.hpp:77] Creating layer inception_5a/1x1/bn/sc/relu
I1129 13:30:45.279325 26105 net.cpp:100] Creating Layer inception_5a/1x1/bn/sc/relu
I1129 13:30:45.279333 26105 net.cpp:434] inception_5a/1x1/bn/sc/relu <- inception_5a/1x1/bn/sc
I1129 13:30:45.279341 26105 net.cpp:395] inception_5a/1x1/bn/sc/relu -> inception_5a/1x1/bn/sc (in-place)
I1129 13:30:45.279351 26105 net.cpp:150] Setting up inception_5a/1x1/bn/sc/relu
I1129 13:30:45.279359 26105 net.cpp:157] Top shape: 16 352 7 7 (275968)
I1129 13:30:45.279364 26105 net.cpp:165] Memory required for data: 1376217752
I1129 13:30:45.279371 26105 layer_factory.hpp:77] Creating layer inception_5a/3x3_reduce
I1129 13:30:45.279386 26105 net.cpp:100] Creating Layer inception_5a/3x3_reduce
I1129 13:30:45.279392 26105 net.cpp:434] inception_5a/3x3_reduce <- inception_4e/output_inception_4e/output_0_split_2
I1129 13:30:45.279402 26105 net.cpp:408] inception_5a/3x3_reduce -> inception_5a/3x3_reduce
I1129 13:30:45.282441 26105 net.cpp:150] Setting up inception_5a/3x3_reduce
I1129 13:30:45.282465 26105 net.cpp:157] Top shape: 16 192 7 7 (150528)
I1129 13:30:45.282471 26105 net.cpp:165] Memory required for data: 1376819864
I1129 13:30:45.282480 26105 layer_factory.hpp:77] Creating layer inception_5a/3x3_reduce/bn
I1129 13:30:45.282496 26105 net.cpp:100] Creating Layer inception_5a/3x3_reduce/bn
I1129 13:30:45.282513 26105 net.cpp:434] inception_5a/3x3_reduce/bn <- inception_5a/3x3_reduce
I1129 13:30:45.282531 26105 net.cpp:408] inception_5a/3x3_reduce/bn -> inception_5a/3x3_reduce/bn
I1129 13:30:45.282827 26105 net.cpp:150] Setting up inception_5a/3x3_reduce/bn
I1129 13:30:45.282842 26105 net.cpp:157] Top shape: 16 192 7 7 (150528)
I1129 13:30:45.282848 26105 net.cpp:165] Memory required for data: 1377421976
I1129 13:30:45.282871 26105 layer_factory.hpp:77] Creating layer inception_5a/3x3_reduce/bn/sc
I1129 13:30:45.282882 26105 net.cpp:100] Creating Layer inception_5a/3x3_reduce/bn/sc
I1129 13:30:45.282889 26105 net.cpp:434] inception_5a/3x3_reduce/bn/sc <- inception_5a/3x3_reduce/bn
I1129 13:30:45.282898 26105 net.cpp:408] inception_5a/3x3_reduce/bn/sc -> inception_5a/3x3_reduce/bn/sc
I1129 13:30:45.282965 26105 layer_factory.hpp:77] Creating layer inception_5a/3x3_reduce/bn/sc
I1129 13:30:45.283133 26105 net.cpp:150] Setting up inception_5a/3x3_reduce/bn/sc
I1129 13:30:45.283146 26105 net.cpp:157] Top shape: 16 192 7 7 (150528)
I1129 13:30:45.283151 26105 net.cpp:165] Memory required for data: 1378024088
I1129 13:30:45.283161 26105 layer_factory.hpp:77] Creating layer inception_5a/3x3_reduce/bn/sc/relu
I1129 13:30:45.283174 26105 net.cpp:100] Creating Layer inception_5a/3x3_reduce/bn/sc/relu
I1129 13:30:45.283181 26105 net.cpp:434] inception_5a/3x3_reduce/bn/sc/relu <- inception_5a/3x3_reduce/bn/sc
I1129 13:30:45.283190 26105 net.cpp:395] inception_5a/3x3_reduce/bn/sc/relu -> inception_5a/3x3_reduce/bn/sc (in-place)
I1129 13:30:45.283200 26105 net.cpp:150] Setting up inception_5a/3x3_reduce/bn/sc/relu
I1129 13:30:45.283206 26105 net.cpp:157] Top shape: 16 192 7 7 (150528)
I1129 13:30:45.283212 26105 net.cpp:165] Memory required for data: 1378626200
I1129 13:30:45.283218 26105 layer_factory.hpp:77] Creating layer inception_5a/3x3
I1129 13:30:45.283233 26105 net.cpp:100] Creating Layer inception_5a/3x3
I1129 13:30:45.283239 26105 net.cpp:434] inception_5a/3x3 <- inception_5a/3x3_reduce/bn/sc
I1129 13:30:45.283248 26105 net.cpp:408] inception_5a/3x3 -> inception_5a/3x3
I1129 13:30:45.290477 26105 net.cpp:150] Setting up inception_5a/3x3
I1129 13:30:45.290500 26105 net.cpp:157] Top shape: 16 320 7 7 (250880)
I1129 13:30:45.290506 26105 net.cpp:165] Memory required for data: 1379629720
I1129 13:30:45.290515 26105 layer_factory.hpp:77] Creating layer inception_5a/3x3/bn
I1129 13:30:45.290526 26105 net.cpp:100] Creating Layer inception_5a/3x3/bn
I1129 13:30:45.290534 26105 net.cpp:434] inception_5a/3x3/bn <- inception_5a/3x3
I1129 13:30:45.290545 26105 net.cpp:408] inception_5a/3x3/bn -> inception_5a/3x3/bn
I1129 13:30:45.290882 26105 net.cpp:150] Setting up inception_5a/3x3/bn
I1129 13:30:45.290899 26105 net.cpp:157] Top shape: 16 320 7 7 (250880)
I1129 13:30:45.290905 26105 net.cpp:165] Memory required for data: 1380633240
I1129 13:30:45.290916 26105 layer_factory.hpp:77] Creating layer inception_5a/3x3/bn/sc
I1129 13:30:45.290927 26105 net.cpp:100] Creating Layer inception_5a/3x3/bn/sc
I1129 13:30:45.290935 26105 net.cpp:434] inception_5a/3x3/bn/sc <- inception_5a/3x3/bn
I1129 13:30:45.290943 26105 net.cpp:408] inception_5a/3x3/bn/sc -> inception_5a/3x3/bn/sc
I1129 13:30:45.291023 26105 layer_factory.hpp:77] Creating layer inception_5a/3x3/bn/sc
I1129 13:30:45.291199 26105 net.cpp:150] Setting up inception_5a/3x3/bn/sc
I1129 13:30:45.291213 26105 net.cpp:157] Top shape: 16 320 7 7 (250880)
I1129 13:30:45.291219 26105 net.cpp:165] Memory required for data: 1381636760
I1129 13:30:45.291229 26105 layer_factory.hpp:77] Creating layer inception_5a/3x3/bn/sc/relu
I1129 13:30:45.291241 26105 net.cpp:100] Creating Layer inception_5a/3x3/bn/sc/relu
I1129 13:30:45.291249 26105 net.cpp:434] inception_5a/3x3/bn/sc/relu <- inception_5a/3x3/bn/sc
I1129 13:30:45.291257 26105 net.cpp:395] inception_5a/3x3/bn/sc/relu -> inception_5a/3x3/bn/sc (in-place)
I1129 13:30:45.291267 26105 net.cpp:150] Setting up inception_5a/3x3/bn/sc/relu
I1129 13:30:45.291275 26105 net.cpp:157] Top shape: 16 320 7 7 (250880)
I1129 13:30:45.291286 26105 net.cpp:165] Memory required for data: 1382640280
I1129 13:30:45.291301 26105 layer_factory.hpp:77] Creating layer inception_5a/double3x3_reduce
I1129 13:30:45.291318 26105 net.cpp:100] Creating Layer inception_5a/double3x3_reduce
I1129 13:30:45.291326 26105 net.cpp:434] inception_5a/double3x3_reduce <- inception_4e/output_inception_4e/output_0_split_3
I1129 13:30:45.291335 26105 net.cpp:408] inception_5a/double3x3_reduce -> inception_5a/double3x3_reduce
I1129 13:30:45.294091 26105 net.cpp:150] Setting up inception_5a/double3x3_reduce
I1129 13:30:45.294112 26105 net.cpp:157] Top shape: 16 160 7 7 (125440)
I1129 13:30:45.294119 26105 net.cpp:165] Memory required for data: 1383142040
I1129 13:30:45.294128 26105 layer_factory.hpp:77] Creating layer inception_5a/double3x3_reduce/bn
I1129 13:30:45.294138 26105 net.cpp:100] Creating Layer inception_5a/double3x3_reduce/bn
I1129 13:30:45.294147 26105 net.cpp:434] inception_5a/double3x3_reduce/bn <- inception_5a/double3x3_reduce
I1129 13:30:45.294158 26105 net.cpp:408] inception_5a/double3x3_reduce/bn -> inception_5a/double3x3_reduce/bn
I1129 13:30:45.294455 26105 net.cpp:150] Setting up inception_5a/double3x3_reduce/bn
I1129 13:30:45.294468 26105 net.cpp:157] Top shape: 16 160 7 7 (125440)
I1129 13:30:45.294474 26105 net.cpp:165] Memory required for data: 1383643800
I1129 13:30:45.294486 26105 layer_factory.hpp:77] Creating layer inception_5a/double3x3_reduce/bn/sc
I1129 13:30:45.294495 26105 net.cpp:100] Creating Layer inception_5a/double3x3_reduce/bn/sc
I1129 13:30:45.294502 26105 net.cpp:434] inception_5a/double3x3_reduce/bn/sc <- inception_5a/double3x3_reduce/bn
I1129 13:30:45.294512 26105 net.cpp:408] inception_5a/double3x3_reduce/bn/sc -> inception_5a/double3x3_reduce/bn/sc
I1129 13:30:45.294577 26105 layer_factory.hpp:77] Creating layer inception_5a/double3x3_reduce/bn/sc
I1129 13:30:45.294744 26105 net.cpp:150] Setting up inception_5a/double3x3_reduce/bn/sc
I1129 13:30:45.294759 26105 net.cpp:157] Top shape: 16 160 7 7 (125440)
I1129 13:30:45.294764 26105 net.cpp:165] Memory required for data: 1384145560
I1129 13:30:45.294775 26105 layer_factory.hpp:77] Creating layer inception_5a/double3x3_reduce/bn/sc/relu
I1129 13:30:45.294783 26105 net.cpp:100] Creating Layer inception_5a/double3x3_reduce/bn/sc/relu
I1129 13:30:45.294790 26105 net.cpp:434] inception_5a/double3x3_reduce/bn/sc/relu <- inception_5a/double3x3_reduce/bn/sc
I1129 13:30:45.294798 26105 net.cpp:395] inception_5a/double3x3_reduce/bn/sc/relu -> inception_5a/double3x3_reduce/bn/sc (in-place)
I1129 13:30:45.294808 26105 net.cpp:150] Setting up inception_5a/double3x3_reduce/bn/sc/relu
I1129 13:30:45.294816 26105 net.cpp:157] Top shape: 16 160 7 7 (125440)
I1129 13:30:45.294821 26105 net.cpp:165] Memory required for data: 1384647320
I1129 13:30:45.294827 26105 layer_factory.hpp:77] Creating layer inception_5a/double3x3a
I1129 13:30:45.294842 26105 net.cpp:100] Creating Layer inception_5a/double3x3a
I1129 13:30:45.294848 26105 net.cpp:434] inception_5a/double3x3a <- inception_5a/double3x3_reduce/bn/sc
I1129 13:30:45.294870 26105 net.cpp:408] inception_5a/double3x3a -> inception_5a/double3x3a
I1129 13:30:45.299216 26105 net.cpp:150] Setting up inception_5a/double3x3a
I1129 13:30:45.299237 26105 net.cpp:157] Top shape: 16 224 7 7 (175616)
I1129 13:30:45.299244 26105 net.cpp:165] Memory required for data: 1385349784
I1129 13:30:45.299253 26105 layer_factory.hpp:77] Creating layer inception_5a/double3x3a/bn
I1129 13:30:45.299266 26105 net.cpp:100] Creating Layer inception_5a/double3x3a/bn
I1129 13:30:45.299274 26105 net.cpp:434] inception_5a/double3x3a/bn <- inception_5a/double3x3a
I1129 13:30:45.299284 26105 net.cpp:408] inception_5a/double3x3a/bn -> inception_5a/double3x3a/bn
I1129 13:30:45.299582 26105 net.cpp:150] Setting up inception_5a/double3x3a/bn
I1129 13:30:45.299597 26105 net.cpp:157] Top shape: 16 224 7 7 (175616)
I1129 13:30:45.299602 26105 net.cpp:165] Memory required for data: 1386052248
I1129 13:30:45.299613 26105 layer_factory.hpp:77] Creating layer inception_5a/double3x3a/bn/sc
I1129 13:30:45.299630 26105 net.cpp:100] Creating Layer inception_5a/double3x3a/bn/sc
I1129 13:30:45.299646 26105 net.cpp:434] inception_5a/double3x3a/bn/sc <- inception_5a/double3x3a/bn
I1129 13:30:45.299656 26105 net.cpp:408] inception_5a/double3x3a/bn/sc -> inception_5a/double3x3a/bn/sc
I1129 13:30:45.299721 26105 layer_factory.hpp:77] Creating layer inception_5a/double3x3a/bn/sc
I1129 13:30:45.299890 26105 net.cpp:150] Setting up inception_5a/double3x3a/bn/sc
I1129 13:30:45.299906 26105 net.cpp:157] Top shape: 16 224 7 7 (175616)
I1129 13:30:45.299912 26105 net.cpp:165] Memory required for data: 1386754712
I1129 13:30:45.299922 26105 layer_factory.hpp:77] Creating layer inception_5a/double3x3a/bn/sc/relu
I1129 13:30:45.299932 26105 net.cpp:100] Creating Layer inception_5a/double3x3a/bn/sc/relu
I1129 13:30:45.299938 26105 net.cpp:434] inception_5a/double3x3a/bn/sc/relu <- inception_5a/double3x3a/bn/sc
I1129 13:30:45.299947 26105 net.cpp:395] inception_5a/double3x3a/bn/sc/relu -> inception_5a/double3x3a/bn/sc (in-place)
I1129 13:30:45.299957 26105 net.cpp:150] Setting up inception_5a/double3x3a/bn/sc/relu
I1129 13:30:45.299963 26105 net.cpp:157] Top shape: 16 224 7 7 (175616)
I1129 13:30:45.299969 26105 net.cpp:165] Memory required for data: 1387457176
I1129 13:30:45.299975 26105 layer_factory.hpp:77] Creating layer inception_5a/double3x3b
I1129 13:30:45.299989 26105 net.cpp:100] Creating Layer inception_5a/double3x3b
I1129 13:30:45.299996 26105 net.cpp:434] inception_5a/double3x3b <- inception_5a/double3x3a/bn/sc
I1129 13:30:45.300009 26105 net.cpp:408] inception_5a/double3x3b -> inception_5a/double3x3b
I1129 13:30:45.305804 26105 net.cpp:150] Setting up inception_5a/double3x3b
I1129 13:30:45.305829 26105 net.cpp:157] Top shape: 16 224 7 7 (175616)
I1129 13:30:45.305835 26105 net.cpp:165] Memory required for data: 1388159640
I1129 13:30:45.305845 26105 layer_factory.hpp:77] Creating layer inception_5a/double3x3b/bn
I1129 13:30:45.305857 26105 net.cpp:100] Creating Layer inception_5a/double3x3b/bn
I1129 13:30:45.305866 26105 net.cpp:434] inception_5a/double3x3b/bn <- inception_5a/double3x3b
I1129 13:30:45.305874 26105 net.cpp:408] inception_5a/double3x3b/bn -> inception_5a/double3x3b/bn
I1129 13:30:45.306169 26105 net.cpp:150] Setting up inception_5a/double3x3b/bn
I1129 13:30:45.306182 26105 net.cpp:157] Top shape: 16 224 7 7 (175616)
I1129 13:30:45.306188 26105 net.cpp:165] Memory required for data: 1388862104
I1129 13:30:45.306200 26105 layer_factory.hpp:77] Creating layer inception_5a/double3x3b/bn/sc
I1129 13:30:45.306210 26105 net.cpp:100] Creating Layer inception_5a/double3x3b/bn/sc
I1129 13:30:45.306217 26105 net.cpp:434] inception_5a/double3x3b/bn/sc <- inception_5a/double3x3b/bn
I1129 13:30:45.306226 26105 net.cpp:408] inception_5a/double3x3b/bn/sc -> inception_5a/double3x3b/bn/sc
I1129 13:30:45.306295 26105 layer_factory.hpp:77] Creating layer inception_5a/double3x3b/bn/sc
I1129 13:30:45.306462 26105 net.cpp:150] Setting up inception_5a/double3x3b/bn/sc
I1129 13:30:45.306474 26105 net.cpp:157] Top shape: 16 224 7 7 (175616)
I1129 13:30:45.306480 26105 net.cpp:165] Memory required for data: 1389564568
I1129 13:30:45.306489 26105 layer_factory.hpp:77] Creating layer inception_5a/double3x3b/bn/sc/relu
I1129 13:30:45.306499 26105 net.cpp:100] Creating Layer inception_5a/double3x3b/bn/sc/relu
I1129 13:30:45.306506 26105 net.cpp:434] inception_5a/double3x3b/bn/sc/relu <- inception_5a/double3x3b/bn/sc
I1129 13:30:45.306514 26105 net.cpp:395] inception_5a/double3x3b/bn/sc/relu -> inception_5a/double3x3b/bn/sc (in-place)
I1129 13:30:45.306524 26105 net.cpp:150] Setting up inception_5a/double3x3b/bn/sc/relu
I1129 13:30:45.306531 26105 net.cpp:157] Top shape: 16 224 7 7 (175616)
I1129 13:30:45.306536 26105 net.cpp:165] Memory required for data: 1390267032
I1129 13:30:45.306542 26105 layer_factory.hpp:77] Creating layer inception_5a/pool
I1129 13:30:45.306557 26105 net.cpp:100] Creating Layer inception_5a/pool
I1129 13:30:45.306565 26105 net.cpp:434] inception_5a/pool <- inception_4e/output_inception_4e/output_0_split_4
I1129 13:30:45.306579 26105 net.cpp:408] inception_5a/pool -> inception_5a/pool
I1129 13:30:45.306629 26105 net.cpp:150] Setting up inception_5a/pool
I1129 13:30:45.306641 26105 net.cpp:157] Top shape: 16 1024 7 7 (802816)
I1129 13:30:45.306646 26105 net.cpp:165] Memory required for data: 1393478296
I1129 13:30:45.306653 26105 layer_factory.hpp:77] Creating layer inception_5a/pool_proj
I1129 13:30:45.306669 26105 net.cpp:100] Creating Layer inception_5a/pool_proj
I1129 13:30:45.306677 26105 net.cpp:434] inception_5a/pool_proj <- inception_5a/pool
I1129 13:30:45.306686 26105 net.cpp:408] inception_5a/pool_proj -> inception_5a/pool_proj
I1129 13:30:45.309114 26105 net.cpp:150] Setting up inception_5a/pool_proj
I1129 13:30:45.309137 26105 net.cpp:157] Top shape: 16 128 7 7 (100352)
I1129 13:30:45.309144 26105 net.cpp:165] Memory required for data: 1393879704
I1129 13:30:45.309154 26105 layer_factory.hpp:77] Creating layer inception_5a/pool_proj/bn
I1129 13:30:45.309166 26105 net.cpp:100] Creating Layer inception_5a/pool_proj/bn
I1129 13:30:45.309175 26105 net.cpp:434] inception_5a/pool_proj/bn <- inception_5a/pool_proj
I1129 13:30:45.309185 26105 net.cpp:408] inception_5a/pool_proj/bn -> inception_5a/pool_proj/bn
I1129 13:30:45.309476 26105 net.cpp:150] Setting up inception_5a/pool_proj/bn
I1129 13:30:45.309490 26105 net.cpp:157] Top shape: 16 128 7 7 (100352)
I1129 13:30:45.309496 26105 net.cpp:165] Memory required for data: 1394281112
I1129 13:30:45.309509 26105 layer_factory.hpp:77] Creating layer inception_5a/pool_proj/bn/sc
I1129 13:30:45.309520 26105 net.cpp:100] Creating Layer inception_5a/pool_proj/bn/sc
I1129 13:30:45.309528 26105 net.cpp:434] inception_5a/pool_proj/bn/sc <- inception_5a/pool_proj/bn
I1129 13:30:45.309537 26105 net.cpp:408] inception_5a/pool_proj/bn/sc -> inception_5a/pool_proj/bn/sc
I1129 13:30:45.309602 26105 layer_factory.hpp:77] Creating layer inception_5a/pool_proj/bn/sc
I1129 13:30:45.309761 26105 net.cpp:150] Setting up inception_5a/pool_proj/bn/sc
I1129 13:30:45.309772 26105 net.cpp:157] Top shape: 16 128 7 7 (100352)
I1129 13:30:45.309778 26105 net.cpp:165] Memory required for data: 1394682520
I1129 13:30:45.309788 26105 layer_factory.hpp:77] Creating layer inception_5a/pool_proj/bn/sc/relu
I1129 13:30:45.309800 26105 net.cpp:100] Creating Layer inception_5a/pool_proj/bn/sc/relu
I1129 13:30:45.309808 26105 net.cpp:434] inception_5a/pool_proj/bn/sc/relu <- inception_5a/pool_proj/bn/sc
I1129 13:30:45.309815 26105 net.cpp:395] inception_5a/pool_proj/bn/sc/relu -> inception_5a/pool_proj/bn/sc (in-place)
I1129 13:30:45.309825 26105 net.cpp:150] Setting up inception_5a/pool_proj/bn/sc/relu
I1129 13:30:45.309834 26105 net.cpp:157] Top shape: 16 128 7 7 (100352)
I1129 13:30:45.309839 26105 net.cpp:165] Memory required for data: 1395083928
I1129 13:30:45.309845 26105 layer_factory.hpp:77] Creating layer inception_5a/output
I1129 13:30:45.309854 26105 net.cpp:100] Creating Layer inception_5a/output
I1129 13:30:45.309860 26105 net.cpp:434] inception_5a/output <- inception_5a/1x1/bn/sc
I1129 13:30:45.309869 26105 net.cpp:434] inception_5a/output <- inception_5a/3x3/bn/sc
I1129 13:30:45.309878 26105 net.cpp:434] inception_5a/output <- inception_5a/double3x3b/bn/sc
I1129 13:30:45.309885 26105 net.cpp:434] inception_5a/output <- inception_5a/pool_proj/bn/sc
I1129 13:30:45.309895 26105 net.cpp:408] inception_5a/output -> inception_5a/output
I1129 13:30:45.309931 26105 net.cpp:150] Setting up inception_5a/output
I1129 13:30:45.309942 26105 net.cpp:157] Top shape: 16 1024 7 7 (802816)
I1129 13:30:45.309947 26105 net.cpp:165] Memory required for data: 1398295192
I1129 13:30:45.309953 26105 layer_factory.hpp:77] Creating layer inception_5a/output_inception_5a/output_0_split
I1129 13:30:45.309965 26105 net.cpp:100] Creating Layer inception_5a/output_inception_5a/output_0_split
I1129 13:30:45.309973 26105 net.cpp:434] inception_5a/output_inception_5a/output_0_split <- inception_5a/output
I1129 13:30:45.309981 26105 net.cpp:408] inception_5a/output_inception_5a/output_0_split -> inception_5a/output_inception_5a/output_0_split_0
I1129 13:30:45.310005 26105 net.cpp:408] inception_5a/output_inception_5a/output_0_split -> inception_5a/output_inception_5a/output_0_split_1
I1129 13:30:45.310017 26105 net.cpp:408] inception_5a/output_inception_5a/output_0_split -> inception_5a/output_inception_5a/output_0_split_2
I1129 13:30:45.310026 26105 net.cpp:408] inception_5a/output_inception_5a/output_0_split -> inception_5a/output_inception_5a/output_0_split_3
I1129 13:30:45.310109 26105 net.cpp:150] Setting up inception_5a/output_inception_5a/output_0_split
I1129 13:30:45.310120 26105 net.cpp:157] Top shape: 16 1024 7 7 (802816)
I1129 13:30:45.310128 26105 net.cpp:157] Top shape: 16 1024 7 7 (802816)
I1129 13:30:45.310134 26105 net.cpp:157] Top shape: 16 1024 7 7 (802816)
I1129 13:30:45.310142 26105 net.cpp:157] Top shape: 16 1024 7 7 (802816)
I1129 13:30:45.310147 26105 net.cpp:165] Memory required for data: 1411140248
I1129 13:30:45.310153 26105 layer_factory.hpp:77] Creating layer inception_5b/1x1
I1129 13:30:45.310164 26105 net.cpp:100] Creating Layer inception_5b/1x1
I1129 13:30:45.310171 26105 net.cpp:434] inception_5b/1x1 <- inception_5a/output_inception_5a/output_0_split_0
I1129 13:30:45.310184 26105 net.cpp:408] inception_5b/1x1 -> inception_5b/1x1
I1129 13:30:45.314971 26105 net.cpp:150] Setting up inception_5b/1x1
I1129 13:30:45.314996 26105 net.cpp:157] Top shape: 16 352 7 7 (275968)
I1129 13:30:45.315001 26105 net.cpp:165] Memory required for data: 1412244120
I1129 13:30:45.315011 26105 layer_factory.hpp:77] Creating layer inception_5b/1x1/bn
I1129 13:30:45.315021 26105 net.cpp:100] Creating Layer inception_5b/1x1/bn
I1129 13:30:45.315028 26105 net.cpp:434] inception_5b/1x1/bn <- inception_5b/1x1
I1129 13:30:45.315038 26105 net.cpp:408] inception_5b/1x1/bn -> inception_5b/1x1/bn
I1129 13:30:45.315361 26105 net.cpp:150] Setting up inception_5b/1x1/bn
I1129 13:30:45.315373 26105 net.cpp:157] Top shape: 16 352 7 7 (275968)
I1129 13:30:45.315381 26105 net.cpp:165] Memory required for data: 1413347992
I1129 13:30:45.315392 26105 layer_factory.hpp:77] Creating layer inception_5b/1x1/bn/sc
I1129 13:30:45.315404 26105 net.cpp:100] Creating Layer inception_5b/1x1/bn/sc
I1129 13:30:45.315412 26105 net.cpp:434] inception_5b/1x1/bn/sc <- inception_5b/1x1/bn
I1129 13:30:45.315421 26105 net.cpp:408] inception_5b/1x1/bn/sc -> inception_5b/1x1/bn/sc
I1129 13:30:45.315500 26105 layer_factory.hpp:77] Creating layer inception_5b/1x1/bn/sc
I1129 13:30:45.315683 26105 net.cpp:150] Setting up inception_5b/1x1/bn/sc
I1129 13:30:45.315696 26105 net.cpp:157] Top shape: 16 352 7 7 (275968)
I1129 13:30:45.315702 26105 net.cpp:165] Memory required for data: 1414451864
I1129 13:30:45.315712 26105 layer_factory.hpp:77] Creating layer inception_5b/1x1/bn/sc/relu
I1129 13:30:45.315724 26105 net.cpp:100] Creating Layer inception_5b/1x1/bn/sc/relu
I1129 13:30:45.315732 26105 net.cpp:434] inception_5b/1x1/bn/sc/relu <- inception_5b/1x1/bn/sc
I1129 13:30:45.315742 26105 net.cpp:395] inception_5b/1x1/bn/sc/relu -> inception_5b/1x1/bn/sc (in-place)
I1129 13:30:45.315753 26105 net.cpp:150] Setting up inception_5b/1x1/bn/sc/relu
I1129 13:30:45.315760 26105 net.cpp:157] Top shape: 16 352 7 7 (275968)
I1129 13:30:45.315767 26105 net.cpp:165] Memory required for data: 1415555736
I1129 13:30:45.315773 26105 layer_factory.hpp:77] Creating layer inception_5b/3x3_reduce
I1129 13:30:45.315784 26105 net.cpp:100] Creating Layer inception_5b/3x3_reduce
I1129 13:30:45.315791 26105 net.cpp:434] inception_5b/3x3_reduce <- inception_5a/output_inception_5a/output_0_split_1
I1129 13:30:45.315804 26105 net.cpp:408] inception_5b/3x3_reduce -> inception_5b/3x3_reduce
I1129 13:30:45.318845 26105 net.cpp:150] Setting up inception_5b/3x3_reduce
I1129 13:30:45.318876 26105 net.cpp:157] Top shape: 16 192 7 7 (150528)
I1129 13:30:45.318883 26105 net.cpp:165] Memory required for data: 1416157848
I1129 13:30:45.318892 26105 layer_factory.hpp:77] Creating layer inception_5b/3x3_reduce/bn
I1129 13:30:45.318903 26105 net.cpp:100] Creating Layer inception_5b/3x3_reduce/bn
I1129 13:30:45.318917 26105 net.cpp:434] inception_5b/3x3_reduce/bn <- inception_5b/3x3_reduce
I1129 13:30:45.318936 26105 net.cpp:408] inception_5b/3x3_reduce/bn -> inception_5b/3x3_reduce/bn
I1129 13:30:45.319247 26105 net.cpp:150] Setting up inception_5b/3x3_reduce/bn
I1129 13:30:45.319262 26105 net.cpp:157] Top shape: 16 192 7 7 (150528)
I1129 13:30:45.319267 26105 net.cpp:165] Memory required for data: 1416759960
I1129 13:30:45.319279 26105 layer_factory.hpp:77] Creating layer inception_5b/3x3_reduce/bn/sc
I1129 13:30:45.319293 26105 net.cpp:100] Creating Layer inception_5b/3x3_reduce/bn/sc
I1129 13:30:45.319301 26105 net.cpp:434] inception_5b/3x3_reduce/bn/sc <- inception_5b/3x3_reduce/bn
I1129 13:30:45.319310 26105 net.cpp:408] inception_5b/3x3_reduce/bn/sc -> inception_5b/3x3_reduce/bn/sc
I1129 13:30:45.319380 26105 layer_factory.hpp:77] Creating layer inception_5b/3x3_reduce/bn/sc
I1129 13:30:45.319555 26105 net.cpp:150] Setting up inception_5b/3x3_reduce/bn/sc
I1129 13:30:45.319568 26105 net.cpp:157] Top shape: 16 192 7 7 (150528)
I1129 13:30:45.319574 26105 net.cpp:165] Memory required for data: 1417362072
I1129 13:30:45.319584 26105 layer_factory.hpp:77] Creating layer inception_5b/3x3_reduce/bn/sc/relu
I1129 13:30:45.319597 26105 net.cpp:100] Creating Layer inception_5b/3x3_reduce/bn/sc/relu
I1129 13:30:45.319603 26105 net.cpp:434] inception_5b/3x3_reduce/bn/sc/relu <- inception_5b/3x3_reduce/bn/sc
I1129 13:30:45.319612 26105 net.cpp:395] inception_5b/3x3_reduce/bn/sc/relu -> inception_5b/3x3_reduce/bn/sc (in-place)
I1129 13:30:45.319622 26105 net.cpp:150] Setting up inception_5b/3x3_reduce/bn/sc/relu
I1129 13:30:45.319629 26105 net.cpp:157] Top shape: 16 192 7 7 (150528)
I1129 13:30:45.319635 26105 net.cpp:165] Memory required for data: 1417964184
I1129 13:30:45.319640 26105 layer_factory.hpp:77] Creating layer inception_5b/3x3
I1129 13:30:45.319655 26105 net.cpp:100] Creating Layer inception_5b/3x3
I1129 13:30:45.319663 26105 net.cpp:434] inception_5b/3x3 <- inception_5b/3x3_reduce/bn/sc
I1129 13:30:45.319674 26105 net.cpp:408] inception_5b/3x3 -> inception_5b/3x3
I1129 13:30:45.326618 26105 net.cpp:150] Setting up inception_5b/3x3
I1129 13:30:45.326643 26105 net.cpp:157] Top shape: 16 320 7 7 (250880)
I1129 13:30:45.326649 26105 net.cpp:165] Memory required for data: 1418967704
I1129 13:30:45.326658 26105 layer_factory.hpp:77] Creating layer inception_5b/3x3/bn
I1129 13:30:45.326669 26105 net.cpp:100] Creating Layer inception_5b/3x3/bn
I1129 13:30:45.326678 26105 net.cpp:434] inception_5b/3x3/bn <- inception_5b/3x3
I1129 13:30:45.326686 26105 net.cpp:408] inception_5b/3x3/bn -> inception_5b/3x3/bn
I1129 13:30:45.327033 26105 net.cpp:150] Setting up inception_5b/3x3/bn
I1129 13:30:45.327049 26105 net.cpp:157] Top shape: 16 320 7 7 (250880)
I1129 13:30:45.327055 26105 net.cpp:165] Memory required for data: 1419971224
I1129 13:30:45.327067 26105 layer_factory.hpp:77] Creating layer inception_5b/3x3/bn/sc
I1129 13:30:45.327080 26105 net.cpp:100] Creating Layer inception_5b/3x3/bn/sc
I1129 13:30:45.327088 26105 net.cpp:434] inception_5b/3x3/bn/sc <- inception_5b/3x3/bn
I1129 13:30:45.327097 26105 net.cpp:408] inception_5b/3x3/bn/sc -> inception_5b/3x3/bn/sc
I1129 13:30:45.327178 26105 layer_factory.hpp:77] Creating layer inception_5b/3x3/bn/sc
I1129 13:30:45.327363 26105 net.cpp:150] Setting up inception_5b/3x3/bn/sc
I1129 13:30:45.327375 26105 net.cpp:157] Top shape: 16 320 7 7 (250880)
I1129 13:30:45.327381 26105 net.cpp:165] Memory required for data: 1420974744
I1129 13:30:45.327391 26105 layer_factory.hpp:77] Creating layer inception_5b/3x3/bn/sc/relu
I1129 13:30:45.327406 26105 net.cpp:100] Creating Layer inception_5b/3x3/bn/sc/relu
I1129 13:30:45.327415 26105 net.cpp:434] inception_5b/3x3/bn/sc/relu <- inception_5b/3x3/bn/sc
I1129 13:30:45.327424 26105 net.cpp:395] inception_5b/3x3/bn/sc/relu -> inception_5b/3x3/bn/sc (in-place)
I1129 13:30:45.327435 26105 net.cpp:150] Setting up inception_5b/3x3/bn/sc/relu
I1129 13:30:45.327442 26105 net.cpp:157] Top shape: 16 320 7 7 (250880)
I1129 13:30:45.327455 26105 net.cpp:165] Memory required for data: 1421978264
I1129 13:30:45.327469 26105 layer_factory.hpp:77] Creating layer inception_5b/double3x3_reduce
I1129 13:30:45.327486 26105 net.cpp:100] Creating Layer inception_5b/double3x3_reduce
I1129 13:30:45.327493 26105 net.cpp:434] inception_5b/double3x3_reduce <- inception_5a/output_inception_5a/output_0_split_2
I1129 13:30:45.327507 26105 net.cpp:408] inception_5b/double3x3_reduce -> inception_5b/double3x3_reduce
I1129 13:30:45.330561 26105 net.cpp:150] Setting up inception_5b/double3x3_reduce
I1129 13:30:45.330584 26105 net.cpp:157] Top shape: 16 192 7 7 (150528)
I1129 13:30:45.330590 26105 net.cpp:165] Memory required for data: 1422580376
I1129 13:30:45.330598 26105 layer_factory.hpp:77] Creating layer inception_5b/double3x3_reduce/bn
I1129 13:30:45.330610 26105 net.cpp:100] Creating Layer inception_5b/double3x3_reduce/bn
I1129 13:30:45.330617 26105 net.cpp:434] inception_5b/double3x3_reduce/bn <- inception_5b/double3x3_reduce
I1129 13:30:45.330626 26105 net.cpp:408] inception_5b/double3x3_reduce/bn -> inception_5b/double3x3_reduce/bn
I1129 13:30:45.330950 26105 net.cpp:150] Setting up inception_5b/double3x3_reduce/bn
I1129 13:30:45.330966 26105 net.cpp:157] Top shape: 16 192 7 7 (150528)
I1129 13:30:45.330973 26105 net.cpp:165] Memory required for data: 1423182488
I1129 13:30:45.330986 26105 layer_factory.hpp:77] Creating layer inception_5b/double3x3_reduce/bn/sc
I1129 13:30:45.330997 26105 net.cpp:100] Creating Layer inception_5b/double3x3_reduce/bn/sc
I1129 13:30:45.331006 26105 net.cpp:434] inception_5b/double3x3_reduce/bn/sc <- inception_5b/double3x3_reduce/bn
I1129 13:30:45.331014 26105 net.cpp:408] inception_5b/double3x3_reduce/bn/sc -> inception_5b/double3x3_reduce/bn/sc
I1129 13:30:45.331084 26105 layer_factory.hpp:77] Creating layer inception_5b/double3x3_reduce/bn/sc
I1129 13:30:45.331262 26105 net.cpp:150] Setting up inception_5b/double3x3_reduce/bn/sc
I1129 13:30:45.331275 26105 net.cpp:157] Top shape: 16 192 7 7 (150528)
I1129 13:30:45.331281 26105 net.cpp:165] Memory required for data: 1423784600
I1129 13:30:45.331291 26105 layer_factory.hpp:77] Creating layer inception_5b/double3x3_reduce/bn/sc/relu
I1129 13:30:45.331300 26105 net.cpp:100] Creating Layer inception_5b/double3x3_reduce/bn/sc/relu
I1129 13:30:45.331308 26105 net.cpp:434] inception_5b/double3x3_reduce/bn/sc/relu <- inception_5b/double3x3_reduce/bn/sc
I1129 13:30:45.331318 26105 net.cpp:395] inception_5b/double3x3_reduce/bn/sc/relu -> inception_5b/double3x3_reduce/bn/sc (in-place)
I1129 13:30:45.331329 26105 net.cpp:150] Setting up inception_5b/double3x3_reduce/bn/sc/relu
I1129 13:30:45.331336 26105 net.cpp:157] Top shape: 16 192 7 7 (150528)
I1129 13:30:45.331342 26105 net.cpp:165] Memory required for data: 1424386712
I1129 13:30:45.331348 26105 layer_factory.hpp:77] Creating layer inception_5b/double3x3a
I1129 13:30:45.331360 26105 net.cpp:100] Creating Layer inception_5b/double3x3a
I1129 13:30:45.331367 26105 net.cpp:434] inception_5b/double3x3a <- inception_5b/double3x3_reduce/bn/sc
I1129 13:30:45.331378 26105 net.cpp:408] inception_5b/double3x3a -> inception_5b/double3x3a
I1129 13:30:45.336473 26105 net.cpp:150] Setting up inception_5b/double3x3a
I1129 13:30:45.336498 26105 net.cpp:157] Top shape: 16 224 7 7 (175616)
I1129 13:30:45.336503 26105 net.cpp:165] Memory required for data: 1425089176
I1129 13:30:45.336513 26105 layer_factory.hpp:77] Creating layer inception_5b/double3x3a/bn
I1129 13:30:45.336524 26105 net.cpp:100] Creating Layer inception_5b/double3x3a/bn
I1129 13:30:45.336531 26105 net.cpp:434] inception_5b/double3x3a/bn <- inception_5b/double3x3a
I1129 13:30:45.336540 26105 net.cpp:408] inception_5b/double3x3a/bn -> inception_5b/double3x3a/bn
I1129 13:30:45.336853 26105 net.cpp:150] Setting up inception_5b/double3x3a/bn
I1129 13:30:45.336866 26105 net.cpp:157] Top shape: 16 224 7 7 (175616)
I1129 13:30:45.336872 26105 net.cpp:165] Memory required for data: 1425791640
I1129 13:30:45.336884 26105 layer_factory.hpp:77] Creating layer inception_5b/double3x3a/bn/sc
I1129 13:30:45.336907 26105 net.cpp:100] Creating Layer inception_5b/double3x3a/bn/sc
I1129 13:30:45.336923 26105 net.cpp:434] inception_5b/double3x3a/bn/sc <- inception_5b/double3x3a/bn
I1129 13:30:45.336935 26105 net.cpp:408] inception_5b/double3x3a/bn/sc -> inception_5b/double3x3a/bn/sc
I1129 13:30:45.337002 26105 layer_factory.hpp:77] Creating layer inception_5b/double3x3a/bn/sc
I1129 13:30:45.337182 26105 net.cpp:150] Setting up inception_5b/double3x3a/bn/sc
I1129 13:30:45.337194 26105 net.cpp:157] Top shape: 16 224 7 7 (175616)
I1129 13:30:45.337200 26105 net.cpp:165] Memory required for data: 1426494104
I1129 13:30:45.337209 26105 layer_factory.hpp:77] Creating layer inception_5b/double3x3a/bn/sc/relu
I1129 13:30:45.337219 26105 net.cpp:100] Creating Layer inception_5b/double3x3a/bn/sc/relu
I1129 13:30:45.337226 26105 net.cpp:434] inception_5b/double3x3a/bn/sc/relu <- inception_5b/double3x3a/bn/sc
I1129 13:30:45.337237 26105 net.cpp:395] inception_5b/double3x3a/bn/sc/relu -> inception_5b/double3x3a/bn/sc (in-place)
I1129 13:30:45.337249 26105 net.cpp:150] Setting up inception_5b/double3x3a/bn/sc/relu
I1129 13:30:45.337255 26105 net.cpp:157] Top shape: 16 224 7 7 (175616)
I1129 13:30:45.337261 26105 net.cpp:165] Memory required for data: 1427196568
I1129 13:30:45.337267 26105 layer_factory.hpp:77] Creating layer inception_5b/double3x3b
I1129 13:30:45.337280 26105 net.cpp:100] Creating Layer inception_5b/double3x3b
I1129 13:30:45.337285 26105 net.cpp:434] inception_5b/double3x3b <- inception_5b/double3x3a/bn/sc
I1129 13:30:45.337297 26105 net.cpp:408] inception_5b/double3x3b -> inception_5b/double3x3b
I1129 13:30:45.343111 26105 net.cpp:150] Setting up inception_5b/double3x3b
I1129 13:30:45.343133 26105 net.cpp:157] Top shape: 16 224 7 7 (175616)
I1129 13:30:45.343140 26105 net.cpp:165] Memory required for data: 1427899032
I1129 13:30:45.343149 26105 layer_factory.hpp:77] Creating layer inception_5b/double3x3b/bn
I1129 13:30:45.343159 26105 net.cpp:100] Creating Layer inception_5b/double3x3b/bn
I1129 13:30:45.343168 26105 net.cpp:434] inception_5b/double3x3b/bn <- inception_5b/double3x3b
I1129 13:30:45.343176 26105 net.cpp:408] inception_5b/double3x3b/bn -> inception_5b/double3x3b/bn
I1129 13:30:45.343482 26105 net.cpp:150] Setting up inception_5b/double3x3b/bn
I1129 13:30:45.343495 26105 net.cpp:157] Top shape: 16 224 7 7 (175616)
I1129 13:30:45.343502 26105 net.cpp:165] Memory required for data: 1428601496
I1129 13:30:45.343513 26105 layer_factory.hpp:77] Creating layer inception_5b/double3x3b/bn/sc
I1129 13:30:45.343525 26105 net.cpp:100] Creating Layer inception_5b/double3x3b/bn/sc
I1129 13:30:45.343533 26105 net.cpp:434] inception_5b/double3x3b/bn/sc <- inception_5b/double3x3b/bn
I1129 13:30:45.343544 26105 net.cpp:408] inception_5b/double3x3b/bn/sc -> inception_5b/double3x3b/bn/sc
I1129 13:30:45.343613 26105 layer_factory.hpp:77] Creating layer inception_5b/double3x3b/bn/sc
I1129 13:30:45.343787 26105 net.cpp:150] Setting up inception_5b/double3x3b/bn/sc
I1129 13:30:45.343801 26105 net.cpp:157] Top shape: 16 224 7 7 (175616)
I1129 13:30:45.343806 26105 net.cpp:165] Memory required for data: 1429303960
I1129 13:30:45.343816 26105 layer_factory.hpp:77] Creating layer inception_5b/double3x3b/bn/sc/relu
I1129 13:30:45.343825 26105 net.cpp:100] Creating Layer inception_5b/double3x3b/bn/sc/relu
I1129 13:30:45.343832 26105 net.cpp:434] inception_5b/double3x3b/bn/sc/relu <- inception_5b/double3x3b/bn/sc
I1129 13:30:45.343842 26105 net.cpp:395] inception_5b/double3x3b/bn/sc/relu -> inception_5b/double3x3b/bn/sc (in-place)
I1129 13:30:45.343852 26105 net.cpp:150] Setting up inception_5b/double3x3b/bn/sc/relu
I1129 13:30:45.343860 26105 net.cpp:157] Top shape: 16 224 7 7 (175616)
I1129 13:30:45.343866 26105 net.cpp:165] Memory required for data: 1430006424
I1129 13:30:45.343873 26105 layer_factory.hpp:77] Creating layer inception_5b/pool
I1129 13:30:45.343881 26105 net.cpp:100] Creating Layer inception_5b/pool
I1129 13:30:45.343888 26105 net.cpp:434] inception_5b/pool <- inception_5a/output_inception_5a/output_0_split_3
I1129 13:30:45.343904 26105 net.cpp:408] inception_5b/pool -> inception_5b/pool
I1129 13:30:45.343974 26105 net.cpp:150] Setting up inception_5b/pool
I1129 13:30:45.343986 26105 net.cpp:157] Top shape: 16 1024 7 7 (802816)
I1129 13:30:45.343992 26105 net.cpp:165] Memory required for data: 1433217688
I1129 13:30:45.343998 26105 layer_factory.hpp:77] Creating layer inception_5b/pool_proj
I1129 13:30:45.344013 26105 net.cpp:100] Creating Layer inception_5b/pool_proj
I1129 13:30:45.344020 26105 net.cpp:434] inception_5b/pool_proj <- inception_5b/pool
I1129 13:30:45.344030 26105 net.cpp:408] inception_5b/pool_proj -> inception_5b/pool_proj
I1129 13:30:45.345536 26105 net.cpp:150] Setting up inception_5b/pool_proj
I1129 13:30:45.345551 26105 net.cpp:157] Top shape: 16 128 7 7 (100352)
I1129 13:30:45.345557 26105 net.cpp:165] Memory required for data: 1433619096
I1129 13:30:45.345566 26105 layer_factory.hpp:77] Creating layer inception_5b/pool_proj/bn
I1129 13:30:45.345576 26105 net.cpp:100] Creating Layer inception_5b/pool_proj/bn
I1129 13:30:45.345582 26105 net.cpp:434] inception_5b/pool_proj/bn <- inception_5b/pool_proj
I1129 13:30:45.345590 26105 net.cpp:408] inception_5b/pool_proj/bn -> inception_5b/pool_proj/bn
I1129 13:30:45.345882 26105 net.cpp:150] Setting up inception_5b/pool_proj/bn
I1129 13:30:45.345896 26105 net.cpp:157] Top shape: 16 128 7 7 (100352)
I1129 13:30:45.345901 26105 net.cpp:165] Memory required for data: 1434020504
I1129 13:30:45.345913 26105 layer_factory.hpp:77] Creating layer inception_5b/pool_proj/bn/sc
I1129 13:30:45.345922 26105 net.cpp:100] Creating Layer inception_5b/pool_proj/bn/sc
I1129 13:30:45.345929 26105 net.cpp:434] inception_5b/pool_proj/bn/sc <- inception_5b/pool_proj/bn
I1129 13:30:45.345938 26105 net.cpp:408] inception_5b/pool_proj/bn/sc -> inception_5b/pool_proj/bn/sc
I1129 13:30:45.346004 26105 layer_factory.hpp:77] Creating layer inception_5b/pool_proj/bn/sc
I1129 13:30:45.346168 26105 net.cpp:150] Setting up inception_5b/pool_proj/bn/sc
I1129 13:30:45.346179 26105 net.cpp:157] Top shape: 16 128 7 7 (100352)
I1129 13:30:45.346185 26105 net.cpp:165] Memory required for data: 1434421912
I1129 13:30:45.346194 26105 layer_factory.hpp:77] Creating layer inception_5b/pool_proj/bn/sc/relu
I1129 13:30:45.346206 26105 net.cpp:100] Creating Layer inception_5b/pool_proj/bn/sc/relu
I1129 13:30:45.346213 26105 net.cpp:434] inception_5b/pool_proj/bn/sc/relu <- inception_5b/pool_proj/bn/sc
I1129 13:30:45.346221 26105 net.cpp:395] inception_5b/pool_proj/bn/sc/relu -> inception_5b/pool_proj/bn/sc (in-place)
I1129 13:30:45.346231 26105 net.cpp:150] Setting up inception_5b/pool_proj/bn/sc/relu
I1129 13:30:45.346238 26105 net.cpp:157] Top shape: 16 128 7 7 (100352)
I1129 13:30:45.346245 26105 net.cpp:165] Memory required for data: 1434823320
I1129 13:30:45.346251 26105 layer_factory.hpp:77] Creating layer inception_5b/output
I1129 13:30:45.346259 26105 net.cpp:100] Creating Layer inception_5b/output
I1129 13:30:45.346266 26105 net.cpp:434] inception_5b/output <- inception_5b/1x1/bn/sc
I1129 13:30:45.346273 26105 net.cpp:434] inception_5b/output <- inception_5b/3x3/bn/sc
I1129 13:30:45.346281 26105 net.cpp:434] inception_5b/output <- inception_5b/double3x3b/bn/sc
I1129 13:30:45.346287 26105 net.cpp:434] inception_5b/output <- inception_5b/pool_proj/bn/sc
I1129 13:30:45.346295 26105 net.cpp:408] inception_5b/output -> inception_5b/output
I1129 13:30:45.346336 26105 net.cpp:150] Setting up inception_5b/output
I1129 13:30:45.346349 26105 net.cpp:157] Top shape: 16 1024 7 7 (802816)
I1129 13:30:45.346356 26105 net.cpp:165] Memory required for data: 1438034584
I1129 13:30:45.346362 26105 layer_factory.hpp:77] Creating layer pool5/7x7_s1
I1129 13:30:45.346372 26105 net.cpp:100] Creating Layer pool5/7x7_s1
I1129 13:30:45.346379 26105 net.cpp:434] pool5/7x7_s1 <- inception_5b/output
I1129 13:30:45.346387 26105 net.cpp:408] pool5/7x7_s1 -> pool5/7x7_s1
I1129 13:30:45.346427 26105 net.cpp:150] Setting up pool5/7x7_s1
I1129 13:30:45.346438 26105 net.cpp:157] Top shape: 16 1024 1 1 (16384)
I1129 13:30:45.346453 26105 net.cpp:165] Memory required for data: 1438100120
I1129 13:30:45.346467 26105 layer_factory.hpp:77] Creating layer loss3/classifier
I1129 13:30:45.346480 26105 net.cpp:100] Creating Layer loss3/classifier
I1129 13:30:45.346487 26105 net.cpp:434] loss3/classifier <- pool5/7x7_s1
I1129 13:30:45.346496 26105 net.cpp:408] loss3/classifier -> loss3/classifier
I1129 13:30:45.360405 26105 net.cpp:150] Setting up loss3/classifier
I1129 13:30:45.360430 26105 net.cpp:157] Top shape: 16 1000 (16000)
I1129 13:30:45.360436 26105 net.cpp:165] Memory required for data: 1438164120
I1129 13:30:45.360447 26105 layer_factory.hpp:77] Creating layer loss3/classifier_loss3/classifier_0_split
I1129 13:30:45.360458 26105 net.cpp:100] Creating Layer loss3/classifier_loss3/classifier_0_split
I1129 13:30:45.360466 26105 net.cpp:434] loss3/classifier_loss3/classifier_0_split <- loss3/classifier
I1129 13:30:45.360478 26105 net.cpp:408] loss3/classifier_loss3/classifier_0_split -> loss3/classifier_loss3/classifier_0_split_0
I1129 13:30:45.360491 26105 net.cpp:408] loss3/classifier_loss3/classifier_0_split -> loss3/classifier_loss3/classifier_0_split_1
I1129 13:30:45.360556 26105 net.cpp:150] Setting up loss3/classifier_loss3/classifier_0_split
I1129 13:30:45.360569 26105 net.cpp:157] Top shape: 16 1000 (16000)
I1129 13:30:45.360575 26105 net.cpp:157] Top shape: 16 1000 (16000)
I1129 13:30:45.360581 26105 net.cpp:165] Memory required for data: 1438292120
I1129 13:30:45.360586 26105 layer_factory.hpp:77] Creating layer loss3/loss
I1129 13:30:45.360599 26105 net.cpp:100] Creating Layer loss3/loss
I1129 13:30:45.360605 26105 net.cpp:434] loss3/loss <- loss3/classifier_loss3/classifier_0_split_0
I1129 13:30:45.360613 26105 net.cpp:434] loss3/loss <- label_data_1_split_6
I1129 13:30:45.360622 26105 net.cpp:408] loss3/loss -> loss3/loss
I1129 13:30:45.360636 26105 layer_factory.hpp:77] Creating layer loss3/loss
I1129 13:30:45.360815 26105 net.cpp:150] Setting up loss3/loss
I1129 13:30:45.360828 26105 net.cpp:157] Top shape: (1)
I1129 13:30:45.360834 26105 net.cpp:160]     with loss weight 1
I1129 13:30:45.360849 26105 net.cpp:165] Memory required for data: 1438292124
I1129 13:30:45.360855 26105 layer_factory.hpp:77] Creating layer loss3/prob
I1129 13:30:45.360865 26105 net.cpp:100] Creating Layer loss3/prob
I1129 13:30:45.360873 26105 net.cpp:434] loss3/prob <- loss3/classifier_loss3/classifier_0_split_1
I1129 13:30:45.360885 26105 net.cpp:408] loss3/prob -> loss3/prob
I1129 13:30:45.360999 26105 net.cpp:150] Setting up loss3/prob
I1129 13:30:45.361012 26105 net.cpp:157] Top shape: 16 1000 (16000)
I1129 13:30:45.361018 26105 net.cpp:165] Memory required for data: 1438356124
I1129 13:30:45.361024 26105 layer_factory.hpp:77] Creating layer loss3/prob_loss3/prob_0_split
I1129 13:30:45.361033 26105 net.cpp:100] Creating Layer loss3/prob_loss3/prob_0_split
I1129 13:30:45.361040 26105 net.cpp:434] loss3/prob_loss3/prob_0_split <- loss3/prob
I1129 13:30:45.361050 26105 net.cpp:408] loss3/prob_loss3/prob_0_split -> loss3/prob_loss3/prob_0_split_0
I1129 13:30:45.361062 26105 net.cpp:408] loss3/prob_loss3/prob_0_split -> loss3/prob_loss3/prob_0_split_1
I1129 13:30:45.361114 26105 net.cpp:150] Setting up loss3/prob_loss3/prob_0_split
I1129 13:30:45.361126 26105 net.cpp:157] Top shape: 16 1000 (16000)
I1129 13:30:45.361133 26105 net.cpp:157] Top shape: 16 1000 (16000)
I1129 13:30:45.361140 26105 net.cpp:165] Memory required for data: 1438484124
I1129 13:30:45.361145 26105 layer_factory.hpp:77] Creating layer loss3/top-1
I1129 13:30:45.361157 26105 net.cpp:100] Creating Layer loss3/top-1
I1129 13:30:45.361163 26105 net.cpp:434] loss3/top-1 <- loss3/prob_loss3/prob_0_split_0
I1129 13:30:45.361171 26105 net.cpp:434] loss3/top-1 <- label_data_1_split_7
…
